node {
  name: "input_1"
  op: "Placeholder"
  attr {
    key: "dtype"
    value {
      type: DT_FLOAT
    }
  }
  attr {
    key: "shape"
    value {
      shape {
        dim {
          size: 256
        }
        dim {
          size: 16000
        }
      }
    }
  }
}
node {
  name: "speech_features/lambda_1/lambda_1/Identity"
  op: "Identity"
  input: "input_1"
  attr {
    key: "T"
    value {
      type: DT_FLOAT
    }
  }
}
node {
  name: "speech_features/lambda/lambda/Identity"
  op: "Identity"
  input: "speech_features/lambda_1/lambda_1/Identity"
  attr {
    key: "T"
    value {
      type: DT_FLOAT
    }
  }
}
node {
  name: "speech_features/data_frame/lambda_2/lambda_2/Identity"
  op: "Identity"
  input: "speech_features/lambda/lambda/Identity"
  attr {
    key: "T"
    value {
      type: DT_FLOAT
    }
  }
}
node {
  name: "speech_features/data_frame/frame/frame_length"
  op: "Const"
  attr {
    key: "dtype"
    value {
      type: DT_INT32
    }
  }
  attr {
    key: "value"
    value {
      tensor {
        dtype: DT_INT32
        tensor_shape {
        }
        int_val: 480
      }
    }
  }
}
node {
  name: "speech_features/data_frame/frame/frame_step"
  op: "Const"
  attr {
    key: "dtype"
    value {
      type: DT_INT32
    }
  }
  attr {
    key: "value"
    value {
      tensor {
        dtype: DT_INT32
        tensor_shape {
        }
        int_val: 160
      }
    }
  }
}
node {
  name: "speech_features/data_frame/frame/axis"
  op: "Const"
  attr {
    key: "dtype"
    value {
      type: DT_INT32
    }
  }
  attr {
    key: "value"
    value {
      tensor {
        dtype: DT_INT32
        tensor_shape {
        }
        int_val: -1
      }
    }
  }
}
node {
  name: "speech_features/data_frame/frame/Shape"
  op: "Const"
  attr {
    key: "dtype"
    value {
      type: DT_INT32
    }
  }
  attr {
    key: "value"
    value {
      tensor {
        dtype: DT_INT32
        tensor_shape {
          dim {
            size: 2
          }
        }
        tensor_content: "\000\001\000\000\200>\000\000"
      }
    }
  }
}
node {
  name: "speech_features/data_frame/frame/Size/Const"
  op: "Const"
  attr {
    key: "dtype"
    value {
      type: DT_INT32
    }
  }
  attr {
    key: "value"
    value {
      tensor {
        dtype: DT_INT32
        tensor_shape {
          dim {
            size: 1
          }
        }
        int_val: 256
      }
    }
  }
}
node {
  name: "speech_features/data_frame/frame/Size"
  op: "Const"
  attr {
    key: "dtype"
    value {
      type: DT_INT32
    }
  }
  attr {
    key: "value"
    value {
      tensor {
        dtype: DT_INT32
        tensor_shape {
        }
        int_val: 1
      }
    }
  }
}
node {
  name: "speech_features/data_frame/frame/Size_1/Const"
  op: "Const"
  attr {
    key: "dtype"
    value {
      type: DT_INT32
    }
  }
  attr {
    key: "value"
    value {
      tensor {
        dtype: DT_INT32
        tensor_shape {
          dim {
          }
        }
      }
    }
  }
}
node {
  name: "speech_features/data_frame/frame/Size_1"
  op: "Const"
  attr {
    key: "dtype"
    value {
      type: DT_INT32
    }
  }
  attr {
    key: "value"
    value {
      tensor {
        dtype: DT_INT32
        tensor_shape {
        }
        int_val: 0
      }
    }
  }
}
node {
  name: "speech_features/data_frame/frame/sub/x"
  op: "Const"
  attr {
    key: "dtype"
    value {
      type: DT_INT32
    }
  }
  attr {
    key: "value"
    value {
      tensor {
        dtype: DT_INT32
        tensor_shape {
        }
        int_val: 16000
      }
    }
  }
}
node {
  name: "speech_features/data_frame/frame/sub"
  op: "Sub"
  input: "speech_features/data_frame/frame/sub/x"
  input: "speech_features/data_frame/frame/frame_length"
  attr {
    key: "T"
    value {
      type: DT_INT32
    }
  }
}
node {
  name: "speech_features/data_frame/frame/floordiv"
  op: "FloorDiv"
  input: "speech_features/data_frame/frame/sub"
  input: "speech_features/data_frame/frame/frame_step"
  attr {
    key: "T"
    value {
      type: DT_INT32
    }
  }
}
node {
  name: "speech_features/data_frame/frame/add/x"
  op: "Const"
  attr {
    key: "dtype"
    value {
      type: DT_INT32
    }
  }
  attr {
    key: "value"
    value {
      tensor {
        dtype: DT_INT32
        tensor_shape {
        }
        int_val: 1
      }
    }
  }
}
node {
  name: "speech_features/data_frame/frame/add"
  op: "AddV2"
  input: "speech_features/data_frame/frame/add/x"
  input: "speech_features/data_frame/frame/floordiv"
  attr {
    key: "T"
    value {
      type: DT_INT32
    }
  }
}
node {
  name: "speech_features/data_frame/frame/Maximum/x"
  op: "Const"
  attr {
    key: "dtype"
    value {
      type: DT_INT32
    }
  }
  attr {
    key: "value"
    value {
      tensor {
        dtype: DT_INT32
        tensor_shape {
        }
        int_val: 0
      }
    }
  }
}
node {
  name: "speech_features/data_frame/frame/Maximum"
  op: "Maximum"
  input: "speech_features/data_frame/frame/Maximum/x"
  input: "speech_features/data_frame/frame/add"
  attr {
    key: "T"
    value {
      type: DT_INT32
    }
  }
}
node {
  name: "speech_features/data_frame/frame/gcd/Const"
  op: "Const"
  attr {
    key: "dtype"
    value {
      type: DT_INT32
    }
  }
  attr {
    key: "value"
    value {
      tensor {
        dtype: DT_INT32
        tensor_shape {
        }
        int_val: 160
      }
    }
  }
}
node {
  name: "speech_features/data_frame/frame/floordiv_1/y"
  op: "Const"
  attr {
    key: "dtype"
    value {
      type: DT_INT32
    }
  }
  attr {
    key: "value"
    value {
      tensor {
        dtype: DT_INT32
        tensor_shape {
        }
        int_val: 160
      }
    }
  }
}
node {
  name: "speech_features/data_frame/frame/floordiv_1"
  op: "FloorDiv"
  input: "speech_features/data_frame/frame/frame_length"
  input: "speech_features/data_frame/frame/floordiv_1/y"
  attr {
    key: "T"
    value {
      type: DT_INT32
    }
  }
}
node {
  name: "speech_features/data_frame/frame/floordiv_2/y"
  op: "Const"
  attr {
    key: "dtype"
    value {
      type: DT_INT32
    }
  }
  attr {
    key: "value"
    value {
      tensor {
        dtype: DT_INT32
        tensor_shape {
        }
        int_val: 160
      }
    }
  }
}
node {
  name: "speech_features/data_frame/frame/floordiv_2"
  op: "FloorDiv"
  input: "speech_features/data_frame/frame/frame_step"
  input: "speech_features/data_frame/frame/floordiv_2/y"
  attr {
    key: "T"
    value {
      type: DT_INT32
    }
  }
}
node {
  name: "speech_features/data_frame/frame/concat/values_0"
  op: "Const"
  attr {
    key: "dtype"
    value {
      type: DT_INT32
    }
  }
  attr {
    key: "value"
    value {
      tensor {
        dtype: DT_INT32
        tensor_shape {
          dim {
            size: 1
          }
        }
        int_val: 256
      }
    }
  }
}
node {
  name: "speech_features/data_frame/frame/concat/values_1"
  op: "Const"
  attr {
    key: "dtype"
    value {
      type: DT_INT32
    }
  }
  attr {
    key: "value"
    value {
      tensor {
        dtype: DT_INT32
        tensor_shape {
          dim {
            size: 1
          }
        }
        int_val: 16000
      }
    }
  }
}
node {
  name: "speech_features/data_frame/frame/concat/values_2"
  op: "Const"
  attr {
    key: "dtype"
    value {
      type: DT_INT32
    }
  }
  attr {
    key: "value"
    value {
      tensor {
        dtype: DT_INT32
        tensor_shape {
          dim {
          }
        }
      }
    }
  }
}
node {
  name: "speech_features/data_frame/frame/concat/axis"
  op: "Const"
  attr {
    key: "dtype"
    value {
      type: DT_INT32
    }
  }
  attr {
    key: "value"
    value {
      tensor {
        dtype: DT_INT32
        tensor_shape {
        }
        int_val: 0
      }
    }
  }
}
node {
  name: "speech_features/data_frame/frame/concat"
  op: "ConcatV2"
  input: "speech_features/data_frame/frame/concat/values_0"
  input: "speech_features/data_frame/frame/concat/values_1"
  input: "speech_features/data_frame/frame/concat/values_2"
  input: "speech_features/data_frame/frame/concat/axis"
  attr {
    key: "N"
    value {
      i: 3
    }
  }
  attr {
    key: "T"
    value {
      type: DT_INT32
    }
  }
  attr {
    key: "Tidx"
    value {
      type: DT_INT32
    }
  }
}
node {
  name: "speech_features/data_frame/frame/concat_1/values_0"
  op: "Const"
  attr {
    key: "dtype"
    value {
      type: DT_INT32
    }
  }
  attr {
    key: "value"
    value {
      tensor {
        dtype: DT_INT32
        tensor_shape {
          dim {
            size: 1
          }
        }
        int_val: 256
      }
    }
  }
}
node {
  name: "speech_features/data_frame/frame/concat_1/values_1"
  op: "Const"
  attr {
    key: "dtype"
    value {
      type: DT_INT32
    }
  }
  attr {
    key: "value"
    value {
      tensor {
        dtype: DT_INT32
        tensor_shape {
          dim {
            size: 2
          }
        }
        tensor_content: "d\000\000\000\240\000\000\000"
      }
    }
  }
}
node {
  name: "speech_features/data_frame/frame/concat_1/values_2"
  op: "Const"
  attr {
    key: "dtype"
    value {
      type: DT_INT32
    }
  }
  attr {
    key: "value"
    value {
      tensor {
        dtype: DT_INT32
        tensor_shape {
          dim {
          }
        }
      }
    }
  }
}
node {
  name: "speech_features/data_frame/frame/concat_1/axis"
  op: "Const"
  attr {
    key: "dtype"
    value {
      type: DT_INT32
    }
  }
  attr {
    key: "value"
    value {
      tensor {
        dtype: DT_INT32
        tensor_shape {
        }
        int_val: 0
      }
    }
  }
}
node {
  name: "speech_features/data_frame/frame/concat_1"
  op: "ConcatV2"
  input: "speech_features/data_frame/frame/concat_1/values_0"
  input: "speech_features/data_frame/frame/concat_1/values_1"
  input: "speech_features/data_frame/frame/concat_1/values_2"
  input: "speech_features/data_frame/frame/concat_1/axis"
  attr {
    key: "N"
    value {
      i: 3
    }
  }
  attr {
    key: "T"
    value {
      type: DT_INT32
    }
  }
  attr {
    key: "Tidx"
    value {
      type: DT_INT32
    }
  }
}
node {
  name: "speech_features/data_frame/frame/zeros_like/tensor"
  op: "Const"
  attr {
    key: "dtype"
    value {
      type: DT_INT32
    }
  }
  attr {
    key: "value"
    value {
      tensor {
        dtype: DT_INT32
        tensor_shape {
          dim {
            size: 2
          }
        }
        tensor_content: "\000\001\000\000\200>\000\000"
      }
    }
  }
}
node {
  name: "speech_features/data_frame/frame/zeros_like"
  op: "Const"
  attr {
    key: "dtype"
    value {
      type: DT_INT32
    }
  }
  attr {
    key: "value"
    value {
      tensor {
        dtype: DT_INT32
        tensor_shape {
          dim {
            size: 2
          }
        }
        int_val: 0
      }
    }
  }
}
node {
  name: "speech_features/data_frame/frame/ones_like/Shape"
  op: "Const"
  attr {
    key: "dtype"
    value {
      type: DT_INT32
    }
  }
  attr {
    key: "value"
    value {
      tensor {
        dtype: DT_INT32
        tensor_shape {
          dim {
            size: 1
          }
        }
        int_val: 2
      }
    }
  }
}
node {
  name: "speech_features/data_frame/frame/ones_like/Const"
  op: "Const"
  attr {
    key: "dtype"
    value {
      type: DT_INT32
    }
  }
  attr {
    key: "value"
    value {
      tensor {
        dtype: DT_INT32
        tensor_shape {
        }
        int_val: 1
      }
    }
  }
}
node {
  name: "speech_features/data_frame/frame/ones_like"
  op: "Fill"
  input: "speech_features/data_frame/frame/ones_like/Shape"
  input: "speech_features/data_frame/frame/ones_like/Const"
  attr {
    key: "T"
    value {
      type: DT_INT32
    }
  }
  attr {
    key: "index_type"
    value {
      type: DT_INT32
    }
  }
}
node {
  name: "speech_features/data_frame/frame/StridedSlice"
  op: "StridedSlice"
  input: "speech_features/data_frame/lambda_2/lambda_2/Identity"
  input: "speech_features/data_frame/frame/zeros_like"
  input: "speech_features/data_frame/frame/concat"
  input: "speech_features/data_frame/frame/ones_like"
  attr {
    key: "Index"
    value {
      type: DT_INT32
    }
  }
  attr {
    key: "T"
    value {
      type: DT_FLOAT
    }
  }
  attr {
    key: "begin_mask"
    value {
      i: 0
    }
  }
  attr {
    key: "ellipsis_mask"
    value {
      i: 0
    }
  }
  attr {
    key: "end_mask"
    value {
      i: 0
    }
  }
  attr {
    key: "new_axis_mask"
    value {
      i: 0
    }
  }
  attr {
    key: "shrink_axis_mask"
    value {
      i: 0
    }
  }
}
node {
  name: "speech_features/data_frame/frame/Reshape"
  op: "Reshape"
  input: "speech_features/data_frame/frame/StridedSlice"
  input: "speech_features/data_frame/frame/concat_1"
  attr {
    key: "T"
    value {
      type: DT_FLOAT
    }
  }
  attr {
    key: "Tshape"
    value {
      type: DT_INT32
    }
  }
}
node {
  name: "speech_features/data_frame/frame/range/start"
  op: "Const"
  attr {
    key: "dtype"
    value {
      type: DT_INT32
    }
  }
  attr {
    key: "value"
    value {
      tensor {
        dtype: DT_INT32
        tensor_shape {
        }
        int_val: 0
      }
    }
  }
}
node {
  name: "speech_features/data_frame/frame/range/delta"
  op: "Const"
  attr {
    key: "dtype"
    value {
      type: DT_INT32
    }
  }
  attr {
    key: "value"
    value {
      tensor {
        dtype: DT_INT32
        tensor_shape {
        }
        int_val: 1
      }
    }
  }
}
node {
  name: "speech_features/data_frame/frame/range"
  op: "Range"
  input: "speech_features/data_frame/frame/range/start"
  input: "speech_features/data_frame/frame/Maximum"
  input: "speech_features/data_frame/frame/range/delta"
  attr {
    key: "Tidx"
    value {
      type: DT_INT32
    }
  }
}
node {
  name: "speech_features/data_frame/frame/mul"
  op: "Mul"
  input: "speech_features/data_frame/frame/range"
  input: "speech_features/data_frame/frame/floordiv_2"
  attr {
    key: "T"
    value {
      type: DT_INT32
    }
  }
}
node {
  name: "speech_features/data_frame/frame/Reshape_1/shape/1"
  op: "Const"
  attr {
    key: "dtype"
    value {
      type: DT_INT32
    }
  }
  attr {
    key: "value"
    value {
      tensor {
        dtype: DT_INT32
        tensor_shape {
        }
        int_val: 1
      }
    }
  }
}
node {
  name: "speech_features/data_frame/frame/Reshape_1/shape"
  op: "Pack"
  input: "speech_features/data_frame/frame/Maximum"
  input: "speech_features/data_frame/frame/Reshape_1/shape/1"
  attr {
    key: "N"
    value {
      i: 2
    }
  }
  attr {
    key: "T"
    value {
      type: DT_INT32
    }
  }
  attr {
    key: "axis"
    value {
      i: 0
    }
  }
}
node {
  name: "speech_features/data_frame/frame/Reshape_1"
  op: "Reshape"
  input: "speech_features/data_frame/frame/mul"
  input: "speech_features/data_frame/frame/Reshape_1/shape"
  attr {
    key: "T"
    value {
      type: DT_INT32
    }
  }
  attr {
    key: "Tshape"
    value {
      type: DT_INT32
    }
  }
}
node {
  name: "speech_features/data_frame/frame/range_1/start"
  op: "Const"
  attr {
    key: "dtype"
    value {
      type: DT_INT32
    }
  }
  attr {
    key: "value"
    value {
      tensor {
        dtype: DT_INT32
        tensor_shape {
        }
        int_val: 0
      }
    }
  }
}
node {
  name: "speech_features/data_frame/frame/range_1/delta"
  op: "Const"
  attr {
    key: "dtype"
    value {
      type: DT_INT32
    }
  }
  attr {
    key: "value"
    value {
      tensor {
        dtype: DT_INT32
        tensor_shape {
        }
        int_val: 1
      }
    }
  }
}
node {
  name: "speech_features/data_frame/frame/range_1"
  op: "Range"
  input: "speech_features/data_frame/frame/range_1/start"
  input: "speech_features/data_frame/frame/floordiv_1"
  input: "speech_features/data_frame/frame/range_1/delta"
  attr {
    key: "Tidx"
    value {
      type: DT_INT32
    }
  }
}
node {
  name: "speech_features/data_frame/frame/Reshape_2/shape/0"
  op: "Const"
  attr {
    key: "dtype"
    value {
      type: DT_INT32
    }
  }
  attr {
    key: "value"
    value {
      tensor {
        dtype: DT_INT32
        tensor_shape {
        }
        int_val: 1
      }
    }
  }
}
node {
  name: "speech_features/data_frame/frame/Reshape_2/shape"
  op: "Pack"
  input: "speech_features/data_frame/frame/Reshape_2/shape/0"
  input: "speech_features/data_frame/frame/floordiv_1"
  attr {
    key: "N"
    value {
      i: 2
    }
  }
  attr {
    key: "T"
    value {
      type: DT_INT32
    }
  }
  attr {
    key: "axis"
    value {
      i: 0
    }
  }
}
node {
  name: "speech_features/data_frame/frame/Reshape_2"
  op: "Reshape"
  input: "speech_features/data_frame/frame/range_1"
  input: "speech_features/data_frame/frame/Reshape_2/shape"
  attr {
    key: "T"
    value {
      type: DT_INT32
    }
  }
  attr {
    key: "Tshape"
    value {
      type: DT_INT32
    }
  }
}
node {
  name: "speech_features/data_frame/frame/add_1"
  op: "AddV2"
  input: "speech_features/data_frame/frame/Reshape_1"
  input: "speech_features/data_frame/frame/Reshape_2"
  attr {
    key: "T"
    value {
      type: DT_INT32
    }
  }
}
node {
  name: "speech_features/data_frame/frame/GatherV2/axis"
  op: "Const"
  attr {
    key: "dtype"
    value {
      type: DT_INT32
    }
  }
  attr {
    key: "value"
    value {
      tensor {
        dtype: DT_INT32
        tensor_shape {
        }
        int_val: 1
      }
    }
  }
}
node {
  name: "speech_features/data_frame/frame/GatherV2"
  op: "GatherV2"
  input: "speech_features/data_frame/frame/Reshape"
  input: "speech_features/data_frame/frame/add_1"
  input: "speech_features/data_frame/frame/GatherV2/axis"
  attr {
    key: "Taxis"
    value {
      type: DT_INT32
    }
  }
  attr {
    key: "Tindices"
    value {
      type: DT_INT32
    }
  }
  attr {
    key: "Tparams"
    value {
      type: DT_FLOAT
    }
  }
  attr {
    key: "batch_dims"
    value {
      i: 0
    }
  }
}
node {
  name: "speech_features/data_frame/frame/concat_2/values_0"
  op: "Const"
  attr {
    key: "dtype"
    value {
      type: DT_INT32
    }
  }
  attr {
    key: "value"
    value {
      tensor {
        dtype: DT_INT32
        tensor_shape {
          dim {
            size: 1
          }
        }
        int_val: 256
      }
    }
  }
}
node {
  name: "speech_features/data_frame/frame/concat_2/values_1"
  op: "Pack"
  input: "speech_features/data_frame/frame/Maximum"
  input: "speech_features/data_frame/frame/frame_length"
  attr {
    key: "N"
    value {
      i: 2
    }
  }
  attr {
    key: "T"
    value {
      type: DT_INT32
    }
  }
  attr {
    key: "axis"
    value {
      i: 0
    }
  }
}
node {
  name: "speech_features/data_frame/frame/concat_2/values_2"
  op: "Const"
  attr {
    key: "dtype"
    value {
      type: DT_INT32
    }
  }
  attr {
    key: "value"
    value {
      tensor {
        dtype: DT_INT32
        tensor_shape {
          dim {
          }
        }
      }
    }
  }
}
node {
  name: "speech_features/data_frame/frame/concat_2/axis"
  op: "Const"
  attr {
    key: "dtype"
    value {
      type: DT_INT32
    }
  }
  attr {
    key: "value"
    value {
      tensor {
        dtype: DT_INT32
        tensor_shape {
        }
        int_val: 0
      }
    }
  }
}
node {
  name: "speech_features/data_frame/frame/concat_2"
  op: "ConcatV2"
  input: "speech_features/data_frame/frame/concat_2/values_0"
  input: "speech_features/data_frame/frame/concat_2/values_1"
  input: "speech_features/data_frame/frame/concat_2/values_2"
  input: "speech_features/data_frame/frame/concat_2/axis"
  attr {
    key: "N"
    value {
      i: 3
    }
  }
  attr {
    key: "T"
    value {
      type: DT_INT32
    }
  }
  attr {
    key: "Tidx"
    value {
      type: DT_INT32
    }
  }
}
node {
  name: "speech_features/data_frame/frame/Reshape_3"
  op: "Reshape"
  input: "speech_features/data_frame/frame/GatherV2"
  input: "speech_features/data_frame/frame/concat_2"
  attr {
    key: "T"
    value {
      type: DT_FLOAT
    }
  }
  attr {
    key: "Tshape"
    value {
      type: DT_INT32
    }
  }
}
node {
  name: "speech_features/lambda_3/lambda_3/Identity"
  op: "Identity"
  input: "speech_features/data_frame/frame/Reshape_3"
  attr {
    key: "T"
    value {
      type: DT_FLOAT
    }
  }
}
node {
  name: "speech_features/lambda_4/lambda_4/Identity"
  op: "Identity"
  input: "speech_features/lambda_3/lambda_3/Identity"
  attr {
    key: "T"
    value {
      type: DT_FLOAT
    }
  }
}
node {
  name: "speech_features/windowing/mul/y"
  op: "Const"
  attr {
    key: "dtype"
    value {
      type: DT_FLOAT
    }
  }
  attr {
    key: "value"
    value {
      tensor {
        dtype: DT_FLOAT
        tensor_shape {
          dim {
            size: 480
          }
        }
        tensor_content: "…"
      }
    }
  }
}
node {
  name: "speech_features/windowing/mul"
  op: "Mul"
  input: "speech_features/lambda_4/lambda_4/Identity"
  input: "speech_features/windowing/mul/y"
  attr {
    key: "T"
    value {
      type: DT_FLOAT
    }
  }
}
node {
  name: "speech_features/magnitude_rdf_tmel/Const"
  op: "Const"
  attr {
    key: "dtype"
    value {
      type: DT_FLOAT
    }
  }
  attr {
    key: "value"
    value {
      tensor {
        dtype: DT_FLOAT
        tensor_shape {
          dim {
            size: 244
          }
          dim {
            size: 80
          }
        }
        tensor_content: "…"
      }
    }
  }
}
node {
  name: "speech_features/magnitude_rdf_tmel/Const_1"
  op: "Const"
  attr {
    key: "dtype"
    value {
      type: DT_FLOAT
    }
  }
  attr {
    key: "value"
    value {
      tensor {
        dtype: DT_FLOAT
        tensor_shape {
          dim {
            size: 480
          }
          dim {
            size: 244
          }
        }
        tensor_content: "…"
      }
    }
  }
}
node {
  name: "speech_features/magnitude_rdf_tmel/Const_2"
  op: "Const"
  attr {
    key: "dtype"
    value {
      type: DT_FLOAT
    }
  }
  attr {
    key: "value"
    value {
      tensor {
        dtype: DT_FLOAT
        tensor_shape {
          dim {
            size: 480
          }
          dim {
            size: 244
          }
        }
        tensor_content: "…"
      }
    }
  }
}
node {
  name: "speech_features/magnitude_rdf_tmel/MatMul"
  op: "BatchMatMulV2"
  input: "speech_features/windowing/mul"
  input: "speech_features/magnitude_rdf_tmel/Const_1"
  attr {
    key: "T"
    value {
      type: DT_FLOAT
    }
  }
  attr {
    key: "adj_x"
    value {
      b: false
    }
  }
  attr {
    key: "adj_y"
    value {
      b: false
    }
  }
}
node {
  name: "speech_features/magnitude_rdf_tmel/MatMul_1"
  op: "BatchMatMulV2"
  input: "speech_features/windowing/mul"
  input: "speech_features/magnitude_rdf_tmel/Const_2"
  attr {
    key: "T"
    value {
      type: DT_FLOAT
    }
  }
  attr {
    key: "adj_x"
    value {
      b: false
    }
  }
  attr {
    key: "adj_y"
    value {
      b: false
    }
  }
}
node {
  name: "speech_features/magnitude_rdf_tmel/mul"
  op: "Mul"
  input: "speech_features/magnitude_rdf_tmel/MatMul"
  input: "speech_features/magnitude_rdf_tmel/MatMul"
  attr {
    key: "T"
    value {
      type: DT_FLOAT
    }
  }
}
node {
  name: "speech_features/magnitude_rdf_tmel/mul_1"
  op: "Mul"
  input: "speech_features/magnitude_rdf_tmel/MatMul_1"
  input: "speech_features/magnitude_rdf_tmel/MatMul_1"
  attr {
    key: "T"
    value {
      type: DT_FLOAT
    }
  }
}
node {
  name: "speech_features/magnitude_rdf_tmel/Add"
  op: "Add"
  input: "speech_features/magnitude_rdf_tmel/mul"
  input: "speech_features/magnitude_rdf_tmel/mul_1"
  attr {
    key: "T"
    value {
      type: DT_FLOAT
    }
  }
}
node {
  name: "speech_features/magnitude_rdf_tmel/Sqrt"
  op: "Sqrt"
  input: "speech_features/magnitude_rdf_tmel/Add"
  attr {
    key: "T"
    value {
      type: DT_FLOAT
    }
  }
}
node {
  name: "speech_features/magnitude_rdf_tmel/MatMul_2"
  op: "BatchMatMulV2"
  input: "speech_features/magnitude_rdf_tmel/Sqrt"
  input: "speech_features/magnitude_rdf_tmel/Const"
  attr {
    key: "T"
    value {
      type: DT_FLOAT
    }
  }
  attr {
    key: "adj_x"
    value {
      b: false
    }
  }
  attr {
    key: "adj_y"
    value {
      b: false
    }
  }
}
node {
  name: "speech_features/lambda_5/Maximum/y"
  op: "Const"
  attr {
    key: "dtype"
    value {
      type: DT_FLOAT
    }
  }
  attr {
    key: "value"
    value {
      tensor {
        dtype: DT_FLOAT
        tensor_shape {
        }
        float_val: 9.999999960041972e-13
      }
    }
  }
}
node {
  name: "speech_features/lambda_5/Maximum"
  op: "Maximum"
  input: "speech_features/magnitude_rdf_tmel/MatMul_2"
  input: "speech_features/lambda_5/Maximum/y"
  attr {
    key: "T"
    value {
      type: DT_FLOAT
    }
  }
}
node {
  name: "speech_features/lambda_5/Log"
  op: "Log"
  input: "speech_features/lambda_5/Maximum"
  attr {
    key: "T"
    value {
      type: DT_FLOAT
    }
  }
}
node {
  name: "speech_features/dct/MatMul/b"
  op: "Const"
  attr {
    key: "dtype"
    value {
      type: DT_FLOAT
    }
  }
  attr {
    key: "value"
    value {
      tensor {
        dtype: DT_FLOAT
        tensor_shape {
          dim {
            size: 80
          }
          dim {
            size: 40
          }
        }
        tensor_content: "…"
      }
    }
  }
}
node {
  name: "speech_features/dct/MatMul"
  op: "BatchMatMulV2"
  input: "speech_features/lambda_5/Log"
  input: "speech_features/dct/MatMul/b"
  attr {
    key: "T"
    value {
      type: DT_FLOAT
    }
  }
  attr {
    key: "adj_x"
    value {
      b: false
    }
  }
  attr {
    key: "adj_y"
    value {
      b: false
    }
  }
}
node {
  name: "speech_features/normalizer/sub/y"
  op: "Const"
  attr {
    key: "dtype"
    value {
      type: DT_FLOAT
    }
  }
  attr {
    key: "value"
    value {
      tensor {
        dtype: DT_FLOAT
        tensor_shape {
          dim {
            size: 40
          }
        }
        tensor_content: "…"
      }
    }
  }
}
node {
  name: "speech_features/normalizer/sub"
  op: "Sub"
  input: "speech_features/dct/MatMul"
  input: "speech_features/normalizer/sub/y"
  attr {
    key: "T"
    value {
      type: DT_FLOAT
    }
  }
}
node {
  name: "speech_features/normalizer/truediv/y"
  op: "Const"
  attr {
    key: "dtype"
    value {
      type: DT_FLOAT
    }
  }
  attr {
    key: "value"
    value {
      tensor {
        dtype: DT_FLOAT
        tensor_shape {
          dim {
            size: 40
          }
        }
        tensor_content: "…"
      }
    }
  }
}
node {
  name: "speech_features/normalizer/truediv"
  op: "RealDiv"
  input: "speech_features/normalizer/sub"
  input: "speech_features/normalizer/truediv/y"
  attr {
    key: "T"
    value {
      type: DT_FLOAT
    }
  }
}
node {
  name: "keras_learning_phase/input"
  op: "Const"
  attr {
    key: "dtype"
    value {
      type: DT_BOOL
    }
  }
  attr {
    key: "value"
    value {
      tensor {
        dtype: DT_BOOL
        tensor_shape {
        }
        bool_val: false
      }
    }
  }
}
node {
  name: "keras_learning_phase"
  op: "PlaceholderWithDefault"
  input: "keras_learning_phase/input"
  attr {
    key: "dtype"
    value {
      type: DT_BOOL
    }
  }
  attr {
    key: "shape"
    value {
      shape {
      }
    }
  }
}
node {
  name: "speech_features/spec_augment/cond"
  op: "If"
  input: "keras_learning_phase"
  input: "speech_features/normalizer/truediv"
  attr {
    key: "Tcond"
    value {
      type: DT_BOOL
    }
  }
  attr {
    key: "Tin"
    value {
      list {
        type: DT_FLOAT
      }
    }
  }
  attr {
    key: "Tout"
    value {
      list {
        type: DT_FLOAT
        type: DT_VARIANT
        type: DT_VARIANT
        type: DT_VARIANT
        type: DT_VARIANT
        type: DT_VARIANT
        type: DT_VARIANT
        type: DT_VARIANT
        type: DT_VARIANT
        type: DT_VARIANT
        type: DT_VARIANT
        type: DT_VARIANT
        type: DT_VARIANT
        type: DT_VARIANT
        type: DT_VARIANT
        type: DT_VARIANT
        type: DT_VARIANT
        type: DT_VARIANT
        type: DT_VARIANT
        type: DT_VARIANT
        type: DT_VARIANT
        type: DT_VARIANT
        type: DT_VARIANT
        type: DT_VARIANT
        type: DT_VARIANT
        type: DT_VARIANT
        type: DT_VARIANT
        type: DT_VARIANT
        type: DT_VARIANT
        type: DT_VARIANT
        type: DT_VARIANT
        type: DT_VARIANT
        type: DT_VARIANT
        type: DT_VARIANT
        type: DT_VARIANT
        type: DT_VARIANT
        type: DT_VARIANT
        type: DT_VARIANT
        type: DT_VARIANT
        type: DT_VARIANT
        type: DT_VARIANT
        type: DT_VARIANT
        type: DT_VARIANT
        type: DT_VARIANT
        type: DT_VARIANT
        type: DT_VARIANT
        type: DT_VARIANT
        type: DT_VARIANT
        type: DT_VARIANT
        type: DT_VARIANT
        type: DT_VARIANT
        type: DT_VARIANT
        type: DT_VARIANT
        type: DT_VARIANT
        type: DT_VARIANT
        type: DT_VARIANT
        type: DT_VARIANT
        type: DT_VARIANT
        type: DT_VARIANT
        type: DT_VARIANT
        type: DT_VARIANT
        type: DT_VARIANT
        type: DT_VARIANT
        type: DT_VARIANT
        type: DT_VARIANT
        type: DT_VARIANT
        type: DT_VARIANT
        type: DT_VARIANT
        type: DT_VARIANT
        type: DT_VARIANT
        type: DT_VARIANT
        type: DT_VARIANT
        type: DT_VARIANT
        type: DT_VARIANT
        type: DT_VARIANT
        type: DT_VARIANT
        type: DT_VARIANT
        type: DT_VARIANT
        type: DT_VARIANT
        type: DT_VARIANT
        type: DT_VARIANT
        type: DT_VARIANT
        type: DT_VARIANT
        type: DT_VARIANT
        type: DT_VARIANT
        type: DT_VARIANT
        type: DT_VARIANT
        type: DT_VARIANT
        type: DT_VARIANT
        type: DT_VARIANT
        type: DT_VARIANT
        type: DT_VARIANT
        type: DT_VARIANT
        type: DT_VARIANT
        type: DT_VARIANT
        type: DT_VARIANT
        type: DT_VARIANT
        type: DT_VARIANT
        type: DT_VARIANT
        type: DT_VARIANT
        type: DT_VARIANT
        type: DT_VARIANT
        type: DT_VARIANT
        type: DT_VARIANT
        type: DT_VARIANT
        type: DT_VARIANT
        type: DT_VARIANT
        type: DT_VARIANT
        type: DT_VARIANT
        type: DT_VARIANT
        type: DT_VARIANT
        type: DT_VARIANT
        type: DT_VARIANT
        type: DT_VARIANT
        type: DT_VARIANT
        type: DT_VARIANT
        type: DT_VARIANT
        type: DT_VARIANT
        type: DT_VARIANT
        type: DT_VARIANT
        type: DT_VARIANT
        type: DT_VARIANT
        type: DT_VARIANT
        type: DT_VARIANT
        type: DT_VARIANT
        type: DT_VARIANT
        type: DT_VARIANT
        type: DT_VARIANT
        type: DT_VARIANT
        type: DT_VARIANT
        type: DT_VARIANT
        type: DT_VARIANT
        type: DT_VARIANT
        type: DT_VARIANT
        type: DT_VARIANT
        type: DT_VARIANT
        type: DT_VARIANT
        type: DT_VARIANT
        type: DT_VARIANT
        type: DT_VARIANT
        type: DT_VARIANT
        type: DT_VARIANT
        type: DT_VARIANT
        type: DT_VARIANT
        type: DT_VARIANT
        type: DT_VARIANT
        type: DT_VARIANT
        type: DT_VARIANT
        type: DT_VARIANT
        type: DT_VARIANT
        type: DT_VARIANT
        type: DT_VARIANT
        type: DT_VARIANT
        type: DT_VARIANT
        type: DT_VARIANT
        type: DT_VARIANT
        type: DT_VARIANT
        type: DT_VARIANT
        type: DT_VARIANT
        type: DT_VARIANT
        type: DT_VARIANT
        type: DT_VARIANT
        type: DT_VARIANT
        type: DT_VARIANT
        type: DT_VARIANT
        type: DT_VARIANT
        type: DT_VARIANT
        type: DT_VARIANT
        type: DT_VARIANT
        type: DT_VARIANT
        type: DT_VARIANT
        type: DT_VARIANT
        type: DT_VARIANT
        type: DT_VARIANT
        type: DT_VARIANT
        type: DT_VARIANT
        type: DT_VARIANT
        type: DT_VARIANT
        type: DT_VARIANT
        type: DT_VARIANT
      }
    }
  }
  attr {
    key: "_lower_using_switch_merge"
    value {
      b: true
    }
  }
  attr {
    key: "_read_only_resource_inputs"
    value {
      list {
      }
    }
  }
  attr {
    key: "else_branch"
    value {
      func {
        name: "speech_features_spec_augment_cond_false_90"
      }
    }
  }
  attr {
    key: "output_shapes"
    value {
      list {
        shape {
          dim {
            size: 256
          }
          dim {
            size: 98
          }
          dim {
            size: 40
          }
        }
        shape {
        }
        shape {
        }
        shape {
        }
        shape {
        }
        shape {
        }
        shape {
        }
        shape {
        }
        shape {
        }
        shape {
        }
        shape {
        }
        shape {
        }
        shape {
        }
        shape {
        }
        shape {
        }
        shape {
        }
        shape {
        }
        shape {
        }
        shape {
        }
        shape {
        }
        shape {
        }
        shape {
        }
        shape {
        }
        shape {
        }
        shape {
        }
        shape {
        }
        shape {
        }
        shape {
        }
        shape {
        }
        shape {
        }
        shape {
        }
        shape {
        }
        shape {
        }
        shape {
        }
        shape {
        }
        shape {
        }
        shape {
        }
        shape {
        }
        shape {
        }
        shape {
        }
        shape {
        }
        shape {
        }
        shape {
        }
        shape {
        }
        shape {
        }
        shape {
        }
        shape {
        }
        shape {
        }
        shape {
        }
        shape {
        }
        shape {
        }
        shape {
        }
        shape {
        }
        shape {
        }
        shape {
        }
        shape {
        }
        shape {
        }
        shape {
        }
        shape {
        }
        shape {
        }
        shape {
        }
        shape {
        }
        shape {
        }
        shape {
        }
        shape {
        }
        shape {
        }
        shape {
        }
        shape {
        }
        shape {
        }
        shape {
        }
        shape {
        }
        shape {
        }
        shape {
        }
        shape {
        }
        shape {
        }
        shape {
        }
        shape {
        }
        shape {
        }
        shape {
        }
        shape {
        }
        shape {
        }
        shape {
        }
        shape {
        }
        shape {
        }
        shape {
        }
        shape {
        }
        shape {
        }
        shape {
        }
        shape {
        }
        shape {
        }
        shape {
        }
        shape {
        }
        shape {
        }
        shape {
        }
        shape {
        }
        shape {
        }
        shape {
        }
        shape {
        }
        shape {
        }
        shape {
        }
        shape {
        }
        shape {
        }
        shape {
        }
        shape {
        }
        shape {
        }
        shape {
        }
        shape {
        }
        shape {
        }
        shape {
        }
        shape {
        }
        shape {
        }
        shape {
        }
        shape {
        }
        shape {
        }
        shape {
        }
        shape {
        }
        shape {
        }
        shape {
        }
        shape {
        }
        shape {
        }
        shape {
        }
        shape {
        }
        shape {
        }
        shape {
        }
        shape {
        }
        shape {
        }
        shape {
        }
        shape {
        }
        shape {
        }
        shape {
        }
        shape {
        }
        shape {
        }
        shape {
        }
        shape {
        }
        shape {
        }
        shape {
        }
        shape {
        }
        shape {
        }
        shape {
        }
        shape {
        }
        shape {
        }
        shape {
        }
        shape {
        }
        shape {
        }
        shape {
        }
        shape {
        }
        shape {
        }
        shape {
        }
        shape {
        }
        shape {
        }
        shape {
        }
        shape {
        }
        shape {
        }
        shape {
        }
        shape {
        }
        shape {
        }
        shape {
        }
        shape {
        }
        shape {
        }
        shape {
        }
        shape {
        }
        shape {
        }
        shape {
        }
        shape {
        }
        shape {
        }
        shape {
        }
        shape {
        }
        shape {
        }
        shape {
        }
        shape {
        }
        shape {
        }
        shape {
        }
        shape {
        }
        shape {
        }
        shape {
        }
        shape {
        }
        shape {
        }
        shape {
        }
        shape {
        }
        shape {
        }
      }
    }
  }
  attr {
    key: "then_branch"
    value {
      func {
        name: "speech_features_spec_augment_cond_true_89"
      }
    }
  }
}
node {
  name: "speech_features/spec_augment/cond/Identity"
  op: "Identity"
  input: "speech_features/spec_augment/cond"
  attr {
    key: "T"
    value {
      type: DT_FLOAT
    }
  }
}
node {
  name: "speech_features/spec_augment/cond/Identity_1"
  op: "Identity"
  input: "speech_features/spec_augment/cond:1"
  attr {
    key: "T"
    value {
      type: DT_VARIANT
    }
  }
}
node {
  name: "speech_features/spec_augment/cond/Identity_2"
  op: "Identity"
  input: "speech_features/spec_augment/cond:2"
  attr {
    key: "T"
    value {
      type: DT_VARIANT
    }
  }
}
node {
  name: "speech_features/spec_augment/cond/Identity_3"
  op: "Identity"
  input: "speech_features/spec_augment/cond:3"
  attr {
    key: "T"
    value {
      type: DT_VARIANT
    }
  }
}
node {
  name: "speech_features/spec_augment/cond/Identity_4"
  op: "Identity"
  input: "speech_features/spec_augment/cond:4"
  attr {
    key: "T"
    value {
      type: DT_VARIANT
    }
  }
}
node {
  name: "speech_features/spec_augment/cond/Identity_5"
  op: "Identity"
  input: "speech_features/spec_augment/cond:5"
  attr {
    key: "T"
    value {
      type: DT_VARIANT
    }
  }
}
node {
  name: "speech_features/spec_augment/cond/Identity_6"
  op: "Identity"
  input: "speech_features/spec_augment/cond:6"
  attr {
    key: "T"
    value {
      type: DT_VARIANT
    }
  }
}
node {
  name: "speech_features/spec_augment/cond/Identity_7"
  op: "Identity"
  input: "speech_features/spec_augment/cond:7"
  attr {
    key: "T"
    value {
      type: DT_VARIANT
    }
  }
}
node {
  name: "speech_features/spec_augment/cond/Identity_8"
  op: "Identity"
  input: "speech_features/spec_augment/cond:8"
  attr {
    key: "T"
    value {
      type: DT_VARIANT
    }
  }
}
node {
  name: "speech_features/spec_augment/cond/Identity_9"
  op: "Identity"
  input: "speech_features/spec_augment/cond:9"
  attr {
    key: "T"
    value {
      type: DT_VARIANT
    }
  }
}
node {
  name: "speech_features/spec_augment/cond/Identity_10"
  op: "Identity"
  input: "speech_features/spec_augment/cond:10"
  attr {
    key: "T"
    value {
      type: DT_VARIANT
    }
  }
}
node {
  name: "speech_features/spec_augment/cond/Identity_11"
  op: "Identity"
  input: "speech_features/spec_augment/cond:11"
  attr {
    key: "T"
    value {
      type: DT_VARIANT
    }
  }
}
node {
  name: "speech_features/spec_augment/cond/Identity_12"
  op: "Identity"
  input: "speech_features/spec_augment/cond:12"
  attr {
    key: "T"
    value {
      type: DT_VARIANT
    }
  }
}
node {
  name: "speech_features/spec_augment/cond/Identity_13"
  op: "Identity"
  input: "speech_features/spec_augment/cond:13"
  attr {
    key: "T"
    value {
      type: DT_VARIANT
    }
  }
}
node {
  name: "speech_features/spec_augment/cond/Identity_14"
  op: "Identity"
  input: "speech_features/spec_augment/cond:14"
  attr {
    key: "T"
    value {
      type: DT_VARIANT
    }
  }
}
node {
  name: "speech_features/spec_augment/cond/Identity_15"
  op: "Identity"
  input: "speech_features/spec_augment/cond:15"
  attr {
    key: "T"
    value {
      type: DT_VARIANT
    }
  }
}
node {
  name: "speech_features/spec_augment/cond/Identity_16"
  op: "Identity"
  input: "speech_features/spec_augment/cond:16"
  attr {
    key: "T"
    value {
      type: DT_VARIANT
    }
  }
}
node {
  name: "speech_features/spec_augment/cond/Identity_17"
  op: "Identity"
  input: "speech_features/spec_augment/cond:17"
  attr {
    key: "T"
    value {
      type: DT_VARIANT
    }
  }
}
node {
  name: "speech_features/spec_augment/cond/Identity_18"
  op: "Identity"
  input: "speech_features/spec_augment/cond:18"
  attr {
    key: "T"
    value {
      type: DT_VARIANT
    }
  }
}
node {
  name: "speech_features/spec_augment/cond/Identity_19"
  op: "Identity"
  input: "speech_features/spec_augment/cond:19"
  attr {
    key: "T"
    value {
      type: DT_VARIANT
    }
  }
}
node {
  name: "speech_features/spec_augment/cond/Identity_20"
  op: "Identity"
  input: "speech_features/spec_augment/cond:20"
  attr {
    key: "T"
    value {
      type: DT_VARIANT
    }
  }
}
node {
  name: "speech_features/spec_augment/cond/Identity_21"
  op: "Identity"
  input: "speech_features/spec_augment/cond:21"
  attr {
    key: "T"
    value {
      type: DT_VARIANT
    }
  }
}
node {
  name: "speech_features/spec_augment/cond/Identity_22"
  op: "Identity"
  input: "speech_features/spec_augment/cond:22"
  attr {
    key: "T"
    value {
      type: DT_VARIANT
    }
  }
}
node {
  name: "speech_features/spec_augment/cond/Identity_23"
  op: "Identity"
  input: "speech_features/spec_augment/cond:23"
  attr {
    key: "T"
    value {
      type: DT_VARIANT
    }
  }
}
node {
  name: "speech_features/spec_augment/cond/Identity_24"
  op: "Identity"
  input: "speech_features/spec_augment/cond:24"
  attr {
    key: "T"
    value {
      type: DT_VARIANT
    }
  }
}
node {
  name: "speech_features/spec_augment/cond/Identity_25"
  op: "Identity"
  input: "speech_features/spec_augment/cond:25"
  attr {
    key: "T"
    value {
      type: DT_VARIANT
    }
  }
}
node {
  name: "speech_features/spec_augment/cond/Identity_26"
  op: "Identity"
  input: "speech_features/spec_augment/cond:26"
  attr {
    key: "T"
    value {
      type: DT_VARIANT
    }
  }
}
node {
  name: "speech_features/spec_augment/cond/Identity_27"
  op: "Identity"
  input: "speech_features/spec_augment/cond:27"
  attr {
    key: "T"
    value {
      type: DT_VARIANT
    }
  }
}
node {
  name: "speech_features/spec_augment/cond/Identity_28"
  op: "Identity"
  input: "speech_features/spec_augment/cond:28"
  attr {
    key: "T"
    value {
      type: DT_VARIANT
    }
  }
}
node {
  name: "speech_features/spec_augment/cond/Identity_29"
  op: "Identity"
  input: "speech_features/spec_augment/cond:29"
  attr {
    key: "T"
    value {
      type: DT_VARIANT
    }
  }
}
node {
  name: "speech_features/spec_augment/cond/Identity_30"
  op: "Identity"
  input: "speech_features/spec_augment/cond:30"
  attr {
    key: "T"
    value {
      type: DT_VARIANT
    }
  }
}
node {
  name: "speech_features/spec_augment/cond/Identity_31"
  op: "Identity"
  input: "speech_features/spec_augment/cond:31"
  attr {
    key: "T"
    value {
      type: DT_VARIANT
    }
  }
}
node {
  name: "speech_features/spec_augment/cond/Identity_32"
  op: "Identity"
  input: "speech_features/spec_augment/cond:32"
  attr {
    key: "T"
    value {
      type: DT_VARIANT
    }
  }
}
node {
  name: "speech_features/spec_augment/cond/Identity_33"
  op: "Identity"
  input: "speech_features/spec_augment/cond:33"
  attr {
    key: "T"
    value {
      type: DT_VARIANT
    }
  }
}
node {
  name: "speech_features/spec_augment/cond/Identity_34"
  op: "Identity"
  input: "speech_features/spec_augment/cond:34"
  attr {
    key: "T"
    value {
      type: DT_VARIANT
    }
  }
}
node {
  name: "speech_features/spec_augment/cond/Identity_35"
  op: "Identity"
  input: "speech_features/spec_augment/cond:35"
  attr {
    key: "T"
    value {
      type: DT_VARIANT
    }
  }
}
node {
  name: "speech_features/spec_augment/cond/Identity_36"
  op: "Identity"
  input: "speech_features/spec_augment/cond:36"
  attr {
    key: "T"
    value {
      type: DT_VARIANT
    }
  }
}
node {
  name: "speech_features/spec_augment/cond/Identity_37"
  op: "Identity"
  input: "speech_features/spec_augment/cond:37"
  attr {
    key: "T"
    value {
      type: DT_VARIANT
    }
  }
}
node {
  name: "speech_features/spec_augment/cond/Identity_38"
  op: "Identity"
  input: "speech_features/spec_augment/cond:38"
  attr {
    key: "T"
    value {
      type: DT_VARIANT
    }
  }
}
node {
  name: "speech_features/spec_augment/cond/Identity_39"
  op: "Identity"
  input: "speech_features/spec_augment/cond:39"
  attr {
    key: "T"
    value {
      type: DT_VARIANT
    }
  }
}
node {
  name: "speech_features/spec_augment/cond/Identity_40"
  op: "Identity"
  input: "speech_features/spec_augment/cond:40"
  attr {
    key: "T"
    value {
      type: DT_VARIANT
    }
  }
}
node {
  name: "speech_features/spec_augment/cond/Identity_41"
  op: "Identity"
  input: "speech_features/spec_augment/cond:41"
  attr {
    key: "T"
    value {
      type: DT_VARIANT
    }
  }
}
node {
  name: "speech_features/spec_augment/cond/Identity_42"
  op: "Identity"
  input: "speech_features/spec_augment/cond:42"
  attr {
    key: "T"
    value {
      type: DT_VARIANT
    }
  }
}
node {
  name: "speech_features/spec_augment/cond/Identity_43"
  op: "Identity"
  input: "speech_features/spec_augment/cond:43"
  attr {
    key: "T"
    value {
      type: DT_VARIANT
    }
  }
}
node {
  name: "speech_features/spec_augment/cond/Identity_44"
  op: "Identity"
  input: "speech_features/spec_augment/cond:44"
  attr {
    key: "T"
    value {
      type: DT_VARIANT
    }
  }
}
node {
  name: "speech_features/spec_augment/cond/Identity_45"
  op: "Identity"
  input: "speech_features/spec_augment/cond:45"
  attr {
    key: "T"
    value {
      type: DT_VARIANT
    }
  }
}
node {
  name: "speech_features/spec_augment/cond/Identity_46"
  op: "Identity"
  input: "speech_features/spec_augment/cond:46"
  attr {
    key: "T"
    value {
      type: DT_VARIANT
    }
  }
}
node {
  name: "speech_features/spec_augment/cond/Identity_47"
  op: "Identity"
  input: "speech_features/spec_augment/cond:47"
  attr {
    key: "T"
    value {
      type: DT_VARIANT
    }
  }
}
node {
  name: "speech_features/spec_augment/cond/Identity_48"
  op: "Identity"
  input: "speech_features/spec_augment/cond:48"
  attr {
    key: "T"
    value {
      type: DT_VARIANT
    }
  }
}
node {
  name: "speech_features/spec_augment/cond/Identity_49"
  op: "Identity"
  input: "speech_features/spec_augment/cond:49"
  attr {
    key: "T"
    value {
      type: DT_VARIANT
    }
  }
}
node {
  name: "speech_features/spec_augment/cond/Identity_50"
  op: "Identity"
  input: "speech_features/spec_augment/cond:50"
  attr {
    key: "T"
    value {
      type: DT_VARIANT
    }
  }
}
node {
  name: "speech_features/spec_augment/cond/Identity_51"
  op: "Identity"
  input: "speech_features/spec_augment/cond:51"
  attr {
    key: "T"
    value {
      type: DT_VARIANT
    }
  }
}
node {
  name: "speech_features/spec_augment/cond/Identity_52"
  op: "Identity"
  input: "speech_features/spec_augment/cond:52"
  attr {
    key: "T"
    value {
      type: DT_VARIANT
    }
  }
}
node {
  name: "speech_features/spec_augment/cond/Identity_53"
  op: "Identity"
  input: "speech_features/spec_augment/cond:53"
  attr {
    key: "T"
    value {
      type: DT_VARIANT
    }
  }
}
node {
  name: "speech_features/spec_augment/cond/Identity_54"
  op: "Identity"
  input: "speech_features/spec_augment/cond:54"
  attr {
    key: "T"
    value {
      type: DT_VARIANT
    }
  }
}
node {
  name: "speech_features/spec_augment/cond/Identity_55"
  op: "Identity"
  input: "speech_features/spec_augment/cond:55"
  attr {
    key: "T"
    value {
      type: DT_VARIANT
    }
  }
}
node {
  name: "speech_features/spec_augment/cond/Identity_56"
  op: "Identity"
  input: "speech_features/spec_augment/cond:56"
  attr {
    key: "T"
    value {
      type: DT_VARIANT
    }
  }
}
node {
  name: "speech_features/spec_augment/cond/Identity_57"
  op: "Identity"
  input: "speech_features/spec_augment/cond:57"
  attr {
    key: "T"
    value {
      type: DT_VARIANT
    }
  }
}
node {
  name: "speech_features/spec_augment/cond/Identity_58"
  op: "Identity"
  input: "speech_features/spec_augment/cond:58"
  attr {
    key: "T"
    value {
      type: DT_VARIANT
    }
  }
}
node {
  name: "speech_features/spec_augment/cond/Identity_59"
  op: "Identity"
  input: "speech_features/spec_augment/cond:59"
  attr {
    key: "T"
    value {
      type: DT_VARIANT
    }
  }
}
node {
  name: "speech_features/spec_augment/cond/Identity_60"
  op: "Identity"
  input: "speech_features/spec_augment/cond:60"
  attr {
    key: "T"
    value {
      type: DT_VARIANT
    }
  }
}
node {
  name: "speech_features/spec_augment/cond/Identity_61"
  op: "Identity"
  input: "speech_features/spec_augment/cond:61"
  attr {
    key: "T"
    value {
      type: DT_VARIANT
    }
  }
}
node {
  name: "speech_features/spec_augment/cond/Identity_62"
  op: "Identity"
  input: "speech_features/spec_augment/cond:62"
  attr {
    key: "T"
    value {
      type: DT_VARIANT
    }
  }
}
node {
  name: "speech_features/spec_augment/cond/Identity_63"
  op: "Identity"
  input: "speech_features/spec_augment/cond:63"
  attr {
    key: "T"
    value {
      type: DT_VARIANT
    }
  }
}
node {
  name: "speech_features/spec_augment/cond/Identity_64"
  op: "Identity"
  input: "speech_features/spec_augment/cond:64"
  attr {
    key: "T"
    value {
      type: DT_VARIANT
    }
  }
}
node {
  name: "speech_features/spec_augment/cond/Identity_65"
  op: "Identity"
  input: "speech_features/spec_augment/cond:65"
  attr {
    key: "T"
    value {
      type: DT_VARIANT
    }
  }
}
node {
  name: "speech_features/spec_augment/cond/Identity_66"
  op: "Identity"
  input: "speech_features/spec_augment/cond:66"
  attr {
    key: "T"
    value {
      type: DT_VARIANT
    }
  }
}
node {
  name: "speech_features/spec_augment/cond/Identity_67"
  op: "Identity"
  input: "speech_features/spec_augment/cond:67"
  attr {
    key: "T"
    value {
      type: DT_VARIANT
    }
  }
}
node {
  name: "speech_features/spec_augment/cond/Identity_68"
  op: "Identity"
  input: "speech_features/spec_augment/cond:68"
  attr {
    key: "T"
    value {
      type: DT_VARIANT
    }
  }
}
node {
  name: "speech_features/spec_augment/cond/Identity_69"
  op: "Identity"
  input: "speech_features/spec_augment/cond:69"
  attr {
    key: "T"
    value {
      type: DT_VARIANT
    }
  }
}
node {
  name: "speech_features/spec_augment/cond/Identity_70"
  op: "Identity"
  input: "speech_features/spec_augment/cond:70"
  attr {
    key: "T"
    value {
      type: DT_VARIANT
    }
  }
}
node {
  name: "speech_features/spec_augment/cond/Identity_71"
  op: "Identity"
  input: "speech_features/spec_augment/cond:71"
  attr {
    key: "T"
    value {
      type: DT_VARIANT
    }
  }
}
node {
  name: "speech_features/spec_augment/cond/Identity_72"
  op: "Identity"
  input: "speech_features/spec_augment/cond:72"
  attr {
    key: "T"
    value {
      type: DT_VARIANT
    }
  }
}
node {
  name: "speech_features/spec_augment/cond/Identity_73"
  op: "Identity"
  input: "speech_features/spec_augment/cond:73"
  attr {
    key: "T"
    value {
      type: DT_VARIANT
    }
  }
}
node {
  name: "speech_features/spec_augment/cond/Identity_74"
  op: "Identity"
  input: "speech_features/spec_augment/cond:74"
  attr {
    key: "T"
    value {
      type: DT_VARIANT
    }
  }
}
node {
  name: "speech_features/spec_augment/cond/Identity_75"
  op: "Identity"
  input: "speech_features/spec_augment/cond:75"
  attr {
    key: "T"
    value {
      type: DT_VARIANT
    }
  }
}
node {
  name: "speech_features/spec_augment/cond/Identity_76"
  op: "Identity"
  input: "speech_features/spec_augment/cond:76"
  attr {
    key: "T"
    value {
      type: DT_VARIANT
    }
  }
}
node {
  name: "speech_features/spec_augment/cond/Identity_77"
  op: "Identity"
  input: "speech_features/spec_augment/cond:77"
  attr {
    key: "T"
    value {
      type: DT_VARIANT
    }
  }
}
node {
  name: "speech_features/spec_augment/cond/Identity_78"
  op: "Identity"
  input: "speech_features/spec_augment/cond:78"
  attr {
    key: "T"
    value {
      type: DT_VARIANT
    }
  }
}
node {
  name: "speech_features/spec_augment/cond/Identity_79"
  op: "Identity"
  input: "speech_features/spec_augment/cond:79"
  attr {
    key: "T"
    value {
      type: DT_VARIANT
    }
  }
}
node {
  name: "speech_features/spec_augment/cond/Identity_80"
  op: "Identity"
  input: "speech_features/spec_augment/cond:80"
  attr {
    key: "T"
    value {
      type: DT_VARIANT
    }
  }
}
node {
  name: "speech_features/spec_augment/cond/Identity_81"
  op: "Identity"
  input: "speech_features/spec_augment/cond:81"
  attr {
    key: "T"
    value {
      type: DT_VARIANT
    }
  }
}
node {
  name: "speech_features/spec_augment/cond/Identity_82"
  op: "Identity"
  input: "speech_features/spec_augment/cond:82"
  attr {
    key: "T"
    value {
      type: DT_VARIANT
    }
  }
}
node {
  name: "speech_features/spec_augment/cond/Identity_83"
  op: "Identity"
  input: "speech_features/spec_augment/cond:83"
  attr {
    key: "T"
    value {
      type: DT_VARIANT
    }
  }
}
node {
  name: "speech_features/spec_augment/cond/Identity_84"
  op: "Identity"
  input: "speech_features/spec_augment/cond:84"
  attr {
    key: "T"
    value {
      type: DT_VARIANT
    }
  }
}
node {
  name: "speech_features/spec_augment/cond/Identity_85"
  op: "Identity"
  input: "speech_features/spec_augment/cond:85"
  attr {
    key: "T"
    value {
      type: DT_VARIANT
    }
  }
}
node {
  name: "speech_features/spec_augment/cond/Identity_86"
  op: "Identity"
  input: "speech_features/spec_augment/cond:86"
  attr {
    key: "T"
    value {
      type: DT_VARIANT
    }
  }
}
node {
  name: "speech_features/spec_augment/cond/Identity_87"
  op: "Identity"
  input: "speech_features/spec_augment/cond:87"
  attr {
    key: "T"
    value {
      type: DT_VARIANT
    }
  }
}
node {
  name: "speech_features/spec_augment/cond/Identity_88"
  op: "Identity"
  input: "speech_features/spec_augment/cond:88"
  attr {
    key: "T"
    value {
      type: DT_VARIANT
    }
  }
}
node {
  name: "speech_features/spec_augment/cond/Identity_89"
  op: "Identity"
  input: "speech_features/spec_augment/cond:89"
  attr {
    key: "T"
    value {
      type: DT_VARIANT
    }
  }
}
node {
  name: "speech_features/spec_augment/cond/Identity_90"
  op: "Identity"
  input: "speech_features/spec_augment/cond:90"
  attr {
    key: "T"
    value {
      type: DT_VARIANT
    }
  }
}
node {
  name: "speech_features/spec_augment/cond/Identity_91"
  op: "Identity"
  input: "speech_features/spec_augment/cond:91"
  attr {
    key: "T"
    value {
      type: DT_VARIANT
    }
  }
}
node {
  name: "speech_features/spec_augment/cond/Identity_92"
  op: "Identity"
  input: "speech_features/spec_augment/cond:92"
  attr {
    key: "T"
    value {
      type: DT_VARIANT
    }
  }
}
node {
  name: "speech_features/spec_augment/cond/Identity_93"
  op: "Identity"
  input: "speech_features/spec_augment/cond:93"
  attr {
    key: "T"
    value {
      type: DT_VARIANT
    }
  }
}
node {
  name: "speech_features/spec_augment/cond/Identity_94"
  op: "Identity"
  input: "speech_features/spec_augment/cond:94"
  attr {
    key: "T"
    value {
      type: DT_VARIANT
    }
  }
}
node {
  name: "speech_features/spec_augment/cond/Identity_95"
  op: "Identity"
  input: "speech_features/spec_augment/cond:95"
  attr {
    key: "T"
    value {
      type: DT_VARIANT
    }
  }
}
node {
  name: "speech_features/spec_augment/cond/Identity_96"
  op: "Identity"
  input: "speech_features/spec_augment/cond:96"
  attr {
    key: "T"
    value {
      type: DT_VARIANT
    }
  }
}
node {
  name: "speech_features/spec_augment/cond/Identity_97"
  op: "Identity"
  input: "speech_features/spec_augment/cond:97"
  attr {
    key: "T"
    value {
      type: DT_VARIANT
    }
  }
}
node {
  name: "speech_features/spec_augment/cond/Identity_98"
  op: "Identity"
  input: "speech_features/spec_augment/cond:98"
  attr {
    key: "T"
    value {
      type: DT_VARIANT
    }
  }
}
node {
  name: "speech_features/spec_augment/cond/Identity_99"
  op: "Identity"
  input: "speech_features/spec_augment/cond:99"
  attr {
    key: "T"
    value {
      type: DT_VARIANT
    }
  }
}
node {
  name: "speech_features/spec_augment/cond/Identity_100"
  op: "Identity"
  input: "speech_features/spec_augment/cond:100"
  attr {
    key: "T"
    value {
      type: DT_VARIANT
    }
  }
}
node {
  name: "speech_features/spec_augment/cond/Identity_101"
  op: "Identity"
  input: "speech_features/spec_augment/cond:101"
  attr {
    key: "T"
    value {
      type: DT_VARIANT
    }
  }
}
node {
  name: "speech_features/spec_augment/cond/Identity_102"
  op: "Identity"
  input: "speech_features/spec_augment/cond:102"
  attr {
    key: "T"
    value {
      type: DT_VARIANT
    }
  }
}
node {
  name: "speech_features/spec_augment/cond/Identity_103"
  op: "Identity"
  input: "speech_features/spec_augment/cond:103"
  attr {
    key: "T"
    value {
      type: DT_VARIANT
    }
  }
}
node {
  name: "speech_features/spec_augment/cond/Identity_104"
  op: "Identity"
  input: "speech_features/spec_augment/cond:104"
  attr {
    key: "T"
    value {
      type: DT_VARIANT
    }
  }
}
node {
  name: "speech_features/spec_augment/cond/Identity_105"
  op: "Identity"
  input: "speech_features/spec_augment/cond:105"
  attr {
    key: "T"
    value {
      type: DT_VARIANT
    }
  }
}
node {
  name: "speech_features/spec_augment/cond/Identity_106"
  op: "Identity"
  input: "speech_features/spec_augment/cond:106"
  attr {
    key: "T"
    value {
      type: DT_VARIANT
    }
  }
}
node {
  name: "speech_features/spec_augment/cond/Identity_107"
  op: "Identity"
  input: "speech_features/spec_augment/cond:107"
  attr {
    key: "T"
    value {
      type: DT_VARIANT
    }
  }
}
node {
  name: "speech_features/spec_augment/cond/Identity_108"
  op: "Identity"
  input: "speech_features/spec_augment/cond:108"
  attr {
    key: "T"
    value {
      type: DT_VARIANT
    }
  }
}
node {
  name: "speech_features/spec_augment/cond/Identity_109"
  op: "Identity"
  input: "speech_features/spec_augment/cond:109"
  attr {
    key: "T"
    value {
      type: DT_VARIANT
    }
  }
}
node {
  name: "speech_features/spec_augment/cond/Identity_110"
  op: "Identity"
  input: "speech_features/spec_augment/cond:110"
  attr {
    key: "T"
    value {
      type: DT_VARIANT
    }
  }
}
node {
  name: "speech_features/spec_augment/cond/Identity_111"
  op: "Identity"
  input: "speech_features/spec_augment/cond:111"
  attr {
    key: "T"
    value {
      type: DT_VARIANT
    }
  }
}
node {
  name: "speech_features/spec_augment/cond/Identity_112"
  op: "Identity"
  input: "speech_features/spec_augment/cond:112"
  attr {
    key: "T"
    value {
      type: DT_VARIANT
    }
  }
}
node {
  name: "speech_features/spec_augment/cond/Identity_113"
  op: "Identity"
  input: "speech_features/spec_augment/cond:113"
  attr {
    key: "T"
    value {
      type: DT_VARIANT
    }
  }
}
node {
  name: "speech_features/spec_augment/cond/Identity_114"
  op: "Identity"
  input: "speech_features/spec_augment/cond:114"
  attr {
    key: "T"
    value {
      type: DT_VARIANT
    }
  }
}
node {
  name: "speech_features/spec_augment/cond/Identity_115"
  op: "Identity"
  input: "speech_features/spec_augment/cond:115"
  attr {
    key: "T"
    value {
      type: DT_VARIANT
    }
  }
}
node {
  name: "speech_features/spec_augment/cond/Identity_116"
  op: "Identity"
  input: "speech_features/spec_augment/cond:116"
  attr {
    key: "T"
    value {
      type: DT_VARIANT
    }
  }
}
node {
  name: "speech_features/spec_augment/cond/Identity_117"
  op: "Identity"
  input: "speech_features/spec_augment/cond:117"
  attr {
    key: "T"
    value {
      type: DT_VARIANT
    }
  }
}
node {
  name: "speech_features/spec_augment/cond/Identity_118"
  op: "Identity"
  input: "speech_features/spec_augment/cond:118"
  attr {
    key: "T"
    value {
      type: DT_VARIANT
    }
  }
}
node {
  name: "speech_features/spec_augment/cond/Identity_119"
  op: "Identity"
  input: "speech_features/spec_augment/cond:119"
  attr {
    key: "T"
    value {
      type: DT_VARIANT
    }
  }
}
node {
  name: "speech_features/spec_augment/cond/Identity_120"
  op: "Identity"
  input: "speech_features/spec_augment/cond:120"
  attr {
    key: "T"
    value {
      type: DT_VARIANT
    }
  }
}
node {
  name: "speech_features/spec_augment/cond/Identity_121"
  op: "Identity"
  input: "speech_features/spec_augment/cond:121"
  attr {
    key: "T"
    value {
      type: DT_VARIANT
    }
  }
}
node {
  name: "speech_features/spec_augment/cond/Identity_122"
  op: "Identity"
  input: "speech_features/spec_augment/cond:122"
  attr {
    key: "T"
    value {
      type: DT_VARIANT
    }
  }
}
node {
  name: "speech_features/spec_augment/cond/Identity_123"
  op: "Identity"
  input: "speech_features/spec_augment/cond:123"
  attr {
    key: "T"
    value {
      type: DT_VARIANT
    }
  }
}
node {
  name: "speech_features/spec_augment/cond/Identity_124"
  op: "Identity"
  input: "speech_features/spec_augment/cond:124"
  attr {
    key: "T"
    value {
      type: DT_VARIANT
    }
  }
}
node {
  name: "speech_features/spec_augment/cond/Identity_125"
  op: "Identity"
  input: "speech_features/spec_augment/cond:125"
  attr {
    key: "T"
    value {
      type: DT_VARIANT
    }
  }
}
node {
  name: "speech_features/spec_augment/cond/Identity_126"
  op: "Identity"
  input: "speech_features/spec_augment/cond:126"
  attr {
    key: "T"
    value {
      type: DT_VARIANT
    }
  }
}
node {
  name: "speech_features/spec_augment/cond/Identity_127"
  op: "Identity"
  input: "speech_features/spec_augment/cond:127"
  attr {
    key: "T"
    value {
      type: DT_VARIANT
    }
  }
}
node {
  name: "speech_features/spec_augment/cond/Identity_128"
  op: "Identity"
  input: "speech_features/spec_augment/cond:128"
  attr {
    key: "T"
    value {
      type: DT_VARIANT
    }
  }
}
node {
  name: "speech_features/spec_augment/cond/Identity_129"
  op: "Identity"
  input: "speech_features/spec_augment/cond:129"
  attr {
    key: "T"
    value {
      type: DT_VARIANT
    }
  }
}
node {
  name: "speech_features/spec_augment/cond/Identity_130"
  op: "Identity"
  input: "speech_features/spec_augment/cond:130"
  attr {
    key: "T"
    value {
      type: DT_VARIANT
    }
  }
}
node {
  name: "speech_features/spec_augment/cond/Identity_131"
  op: "Identity"
  input: "speech_features/spec_augment/cond:131"
  attr {
    key: "T"
    value {
      type: DT_VARIANT
    }
  }
}
node {
  name: "speech_features/spec_augment/cond/Identity_132"
  op: "Identity"
  input: "speech_features/spec_augment/cond:132"
  attr {
    key: "T"
    value {
      type: DT_VARIANT
    }
  }
}
node {
  name: "speech_features/spec_augment/cond/Identity_133"
  op: "Identity"
  input: "speech_features/spec_augment/cond:133"
  attr {
    key: "T"
    value {
      type: DT_VARIANT
    }
  }
}
node {
  name: "speech_features/spec_augment/cond/Identity_134"
  op: "Identity"
  input: "speech_features/spec_augment/cond:134"
  attr {
    key: "T"
    value {
      type: DT_VARIANT
    }
  }
}
node {
  name: "speech_features/spec_augment/cond/Identity_135"
  op: "Identity"
  input: "speech_features/spec_augment/cond:135"
  attr {
    key: "T"
    value {
      type: DT_VARIANT
    }
  }
}
node {
  name: "speech_features/spec_augment/cond/Identity_136"
  op: "Identity"
  input: "speech_features/spec_augment/cond:136"
  attr {
    key: "T"
    value {
      type: DT_VARIANT
    }
  }
}
node {
  name: "speech_features/spec_augment/cond/Identity_137"
  op: "Identity"
  input: "speech_features/spec_augment/cond:137"
  attr {
    key: "T"
    value {
      type: DT_VARIANT
    }
  }
}
node {
  name: "speech_features/spec_augment/cond/Identity_138"
  op: "Identity"
  input: "speech_features/spec_augment/cond:138"
  attr {
    key: "T"
    value {
      type: DT_VARIANT
    }
  }
}
node {
  name: "speech_features/spec_augment/cond/Identity_139"
  op: "Identity"
  input: "speech_features/spec_augment/cond:139"
  attr {
    key: "T"
    value {
      type: DT_VARIANT
    }
  }
}
node {
  name: "speech_features/spec_augment/cond/Identity_140"
  op: "Identity"
  input: "speech_features/spec_augment/cond:140"
  attr {
    key: "T"
    value {
      type: DT_VARIANT
    }
  }
}
node {
  name: "speech_features/spec_augment/cond/Identity_141"
  op: "Identity"
  input: "speech_features/spec_augment/cond:141"
  attr {
    key: "T"
    value {
      type: DT_VARIANT
    }
  }
}
node {
  name: "speech_features/spec_augment/cond/Identity_142"
  op: "Identity"
  input: "speech_features/spec_augment/cond:142"
  attr {
    key: "T"
    value {
      type: DT_VARIANT
    }
  }
}
node {
  name: "speech_features/spec_augment/cond/Identity_143"
  op: "Identity"
  input: "speech_features/spec_augment/cond:143"
  attr {
    key: "T"
    value {
      type: DT_VARIANT
    }
  }
}
node {
  name: "speech_features/spec_augment/cond/Identity_144"
  op: "Identity"
  input: "speech_features/spec_augment/cond:144"
  attr {
    key: "T"
    value {
      type: DT_VARIANT
    }
  }
}
node {
  name: "speech_features/spec_augment/cond/Identity_145"
  op: "Identity"
  input: "speech_features/spec_augment/cond:145"
  attr {
    key: "T"
    value {
      type: DT_VARIANT
    }
  }
}
node {
  name: "speech_features/spec_augment/cond/Identity_146"
  op: "Identity"
  input: "speech_features/spec_augment/cond:146"
  attr {
    key: "T"
    value {
      type: DT_VARIANT
    }
  }
}
node {
  name: "speech_features/spec_augment/cond/Identity_147"
  op: "Identity"
  input: "speech_features/spec_augment/cond:147"
  attr {
    key: "T"
    value {
      type: DT_VARIANT
    }
  }
}
node {
  name: "speech_features/spec_augment/cond/Identity_148"
  op: "Identity"
  input: "speech_features/spec_augment/cond:148"
  attr {
    key: "T"
    value {
      type: DT_VARIANT
    }
  }
}
node {
  name: "speech_features/spec_augment/cond/Identity_149"
  op: "Identity"
  input: "speech_features/spec_augment/cond:149"
  attr {
    key: "T"
    value {
      type: DT_VARIANT
    }
  }
}
node {
  name: "speech_features/spec_augment/cond/Identity_150"
  op: "Identity"
  input: "speech_features/spec_augment/cond:150"
  attr {
    key: "T"
    value {
      type: DT_VARIANT
    }
  }
}
node {
  name: "speech_features/spec_augment/cond/Identity_151"
  op: "Identity"
  input: "speech_features/spec_augment/cond:151"
  attr {
    key: "T"
    value {
      type: DT_VARIANT
    }
  }
}
node {
  name: "speech_features/spec_augment/cond/Identity_152"
  op: "Identity"
  input: "speech_features/spec_augment/cond:152"
  attr {
    key: "T"
    value {
      type: DT_VARIANT
    }
  }
}
node {
  name: "speech_features/spec_augment/cond/Identity_153"
  op: "Identity"
  input: "speech_features/spec_augment/cond:153"
  attr {
    key: "T"
    value {
      type: DT_VARIANT
    }
  }
}
node {
  name: "speech_features/spec_augment/cond/Identity_154"
  op: "Identity"
  input: "speech_features/spec_augment/cond:154"
  attr {
    key: "T"
    value {
      type: DT_VARIANT
    }
  }
}
node {
  name: "speech_features/spec_augment/cond/Identity_155"
  op: "Identity"
  input: "speech_features/spec_augment/cond:155"
  attr {
    key: "T"
    value {
      type: DT_VARIANT
    }
  }
}
node {
  name: "speech_features/spec_augment/cond/Identity_156"
  op: "Identity"
  input: "speech_features/spec_augment/cond:156"
  attr {
    key: "T"
    value {
      type: DT_VARIANT
    }
  }
}
node {
  name: "speech_features/spec_augment/cond/Identity_157"
  op: "Identity"
  input: "speech_features/spec_augment/cond:157"
  attr {
    key: "T"
    value {
      type: DT_VARIANT
    }
  }
}
node {
  name: "speech_features/spec_augment/cond/Identity_158"
  op: "Identity"
  input: "speech_features/spec_augment/cond:158"
  attr {
    key: "T"
    value {
      type: DT_VARIANT
    }
  }
}
node {
  name: "speech_features/spec_augment/cond/Identity_159"
  op: "Identity"
  input: "speech_features/spec_augment/cond:159"
  attr {
    key: "T"
    value {
      type: DT_VARIANT
    }
  }
}
node {
  name: "speech_features/spec_augment/cond/Identity_160"
  op: "Identity"
  input: "speech_features/spec_augment/cond:160"
  attr {
    key: "T"
    value {
      type: DT_VARIANT
    }
  }
}
node {
  name: "speech_features/spec_augment/cond/Identity_161"
  op: "Identity"
  input: "speech_features/spec_augment/cond:161"
  attr {
    key: "T"
    value {
      type: DT_VARIANT
    }
  }
}
node {
  name: "speech_features/spec_augment/cond/Identity_162"
  op: "Identity"
  input: "speech_features/spec_augment/cond:162"
  attr {
    key: "T"
    value {
      type: DT_VARIANT
    }
  }
}
node {
  name: "speech_features/spec_augment/cond/Identity_163"
  op: "Identity"
  input: "speech_features/spec_augment/cond:163"
  attr {
    key: "T"
    value {
      type: DT_VARIANT
    }
  }
}
node {
  name: "speech_features/spec_augment/cond/Identity_164"
  op: "Identity"
  input: "speech_features/spec_augment/cond:164"
  attr {
    key: "T"
    value {
      type: DT_VARIANT
    }
  }
}
node {
  name: "speech_features/spec_augment/cond/Identity_165"
  op: "Identity"
  input: "speech_features/spec_augment/cond:165"
  attr {
    key: "T"
    value {
      type: DT_VARIANT
    }
  }
}
node {
  name: "speech_features/spec_augment/cond/Identity_166"
  op: "Identity"
  input: "speech_features/spec_augment/cond:166"
  attr {
    key: "T"
    value {
      type: DT_VARIANT
    }
  }
}
node {
  name: "speech_features/spec_augment/cond/Identity_167"
  op: "Identity"
  input: "speech_features/spec_augment/cond:167"
  attr {
    key: "T"
    value {
      type: DT_VARIANT
    }
  }
}
node {
  name: "speech_features/spec_augment/cond/Identity_168"
  op: "Identity"
  input: "speech_features/spec_augment/cond:168"
  attr {
    key: "T"
    value {
      type: DT_VARIANT
    }
  }
}
node {
  name: "speech_features/spec_augment/cond/Identity_169"
  op: "Identity"
  input: "speech_features/spec_augment/cond:169"
  attr {
    key: "T"
    value {
      type: DT_VARIANT
    }
  }
}
node {
  name: "speech_features/spec_augment/cond/Identity_170"
  op: "Identity"
  input: "speech_features/spec_augment/cond:170"
  attr {
    key: "T"
    value {
      type: DT_VARIANT
    }
  }
}
node {
  name: "speech_features/spec_augment/cond/Identity_171"
  op: "Identity"
  input: "speech_features/spec_augment/cond:171"
  attr {
    key: "T"
    value {
      type: DT_VARIANT
    }
  }
}
node {
  name: "speech_features/spec_augment/cond/Identity_172"
  op: "Identity"
  input: "speech_features/spec_augment/cond:172"
  attr {
    key: "T"
    value {
      type: DT_VARIANT
    }
  }
}
node {
  name: "speech_features/spec_augment/cond/Identity_173"
  op: "Identity"
  input: "speech_features/spec_augment/cond:173"
  attr {
    key: "T"
    value {
      type: DT_VARIANT
    }
  }
}
node {
  name: "speech_features/spec_augment/cond/Identity_174"
  op: "Identity"
  input: "speech_features/spec_augment/cond:174"
  attr {
    key: "T"
    value {
      type: DT_VARIANT
    }
  }
}
node {
  name: "speech_features/spec_augment/cond/Identity_175"
  op: "Identity"
  input: "speech_features/spec_augment/cond:175"
  attr {
    key: "T"
    value {
      type: DT_VARIANT
    }
  }
}
node {
  name: "speech_features/spec_augment/cond/Identity_176"
  op: "Identity"
  input: "speech_features/spec_augment/cond:176"
  attr {
    key: "T"
    value {
      type: DT_VARIANT
    }
  }
}
node {
  name: "speech_features/spec_augment/cond/Identity_177"
  op: "Identity"
  input: "speech_features/spec_augment/cond:177"
  attr {
    key: "T"
    value {
      type: DT_VARIANT
    }
  }
}
node {
  name: "speech_features/spec_augment/cond/Identity_178"
  op: "Identity"
  input: "speech_features/spec_augment/cond:178"
  attr {
    key: "T"
    value {
      type: DT_VARIANT
    }
  }
}
node {
  name: "speech_features/spec_augment/cond/Identity_179"
  op: "Identity"
  input: "speech_features/spec_augment/cond:179"
  attr {
    key: "T"
    value {
      type: DT_VARIANT
    }
  }
}
node {
  name: "speech_features/lambda_6/lambda_6/Identity"
  op: "Identity"
  input: "speech_features/spec_augment/cond/Identity"
  attr {
    key: "T"
    value {
      type: DT_FLOAT
    }
  }
}
node {
  name: "ExpandDims/dim"
  op: "Const"
  attr {
    key: "dtype"
    value {
      type: DT_INT32
    }
  }
  attr {
    key: "value"
    value {
      tensor {
        dtype: DT_INT32
        tensor_shape {
        }
        int_val: 2
      }
    }
  }
}
node {
  name: "ExpandDims"
  op: "ExpandDims"
  input: "speech_features/lambda_6/lambda_6/Identity"
  input: "ExpandDims/dim"
  attr {
    key: "T"
    value {
      type: DT_FLOAT
    }
  }
  attr {
    key: "Tdim"
    value {
      type: DT_INT32
    }
  }
}
node {
  name: "group_deps"
  op: "NoOp"
  input: "^ExpandDims/dim"
}
node {
  name: "stream/Pad/paddings"
  op: "Const"
  attr {
    key: "dtype"
    value {
      type: DT_INT32
    }
  }
  attr {
    key: "value"
    value {
      tensor {
        dtype: DT_INT32
        tensor_shape {
          dim {
            size: 4
          }
          dim {
            size: 2
          }
        }
        tensor_content: "…"
      }
    }
  }
}
node {
  name: "stream/Pad"
  op: "Pad"
  input: "ExpandDims"
  input: "stream/Pad/paddings"
  attr {
    key: "T"
    value {
      type: DT_FLOAT
    }
  }
  attr {
    key: "Tpaddings"
    value {
      type: DT_INT32
    }
  }
}
node {
  name: "stream/depthwise_conv2d/depthwise_kernel/Initializer/random_uniform/shape"
  op: "Const"
  attr {
    key: "_class"
    value {
      list {
        s: "loc:@stream/depthwise_conv2d/depthwise_kernel"
      }
    }
  }
  attr {
    key: "dtype"
    value {
      type: DT_INT32
    }
  }
  attr {
    key: "value"
    value {
      tensor {
        dtype: DT_INT32
        tensor_shape {
          dim {
            size: 4
          }
        }
        tensor_content: "\013\000\000\000\001\000\000\000(\000\000\000\001\000\000\000"
      }
    }
  }
}
node {
  name: "stream/depthwise_conv2d/depthwise_kernel/Initializer/random_uniform/min"
  op: "Const"
  attr {
    key: "_class"
    value {
      list {
        s: "loc:@stream/depthwise_conv2d/depthwise_kernel"
      }
    }
  }
  attr {
    key: "dtype"
    value {
      type: DT_FLOAT
    }
  }
  attr {
    key: "value"
    value {
      tensor {
        dtype: DT_FLOAT
        tensor_shape {
        }
        float_val: -0.11534196883440018
      }
    }
  }
}
node {
  name: "stream/depthwise_conv2d/depthwise_kernel/Initializer/random_uniform/max"
  op: "Const"
  attr {
    key: "_class"
    value {
      list {
        s: "loc:@stream/depthwise_conv2d/depthwise_kernel"
      }
    }
  }
  attr {
    key: "dtype"
    value {
      type: DT_FLOAT
    }
  }
  attr {
    key: "value"
    value {
      tensor {
        dtype: DT_FLOAT
        tensor_shape {
        }
        float_val: 0.11534196883440018
      }
    }
  }
}
node {
  name: "stream/depthwise_conv2d/depthwise_kernel/Initializer/random_uniform/RandomUniform"
  op: "RandomUniform"
  input: "stream/depthwise_conv2d/depthwise_kernel/Initializer/random_uniform/shape"
  attr {
    key: "T"
    value {
      type: DT_INT32
    }
  }
  attr {
    key: "_class"
    value {
      list {
        s: "loc:@stream/depthwise_conv2d/depthwise_kernel"
      }
    }
  }
  attr {
    key: "dtype"
    value {
      type: DT_FLOAT
    }
  }
  attr {
    key: "seed"
    value {
      i: 0
    }
  }
  attr {
    key: "seed2"
    value {
      i: 0
    }
  }
}
node {
  name: "stream/depthwise_conv2d/depthwise_kernel/Initializer/random_uniform/sub"
  op: "Sub"
  input: "stream/depthwise_conv2d/depthwise_kernel/Initializer/random_uniform/max"
  input: "stream/depthwise_conv2d/depthwise_kernel/Initializer/random_uniform/min"
  attr {
    key: "T"
    value {
      type: DT_FLOAT
    }
  }
  attr {
    key: "_class"
    value {
      list {
        s: "loc:@stream/depthwise_conv2d/depthwise_kernel"
      }
    }
  }
}
node {
  name: "stream/depthwise_conv2d/depthwise_kernel/Initializer/random_uniform/mul"
  op: "Mul"
  input: "stream/depthwise_conv2d/depthwise_kernel/Initializer/random_uniform/RandomUniform"
  input: "stream/depthwise_conv2d/depthwise_kernel/Initializer/random_uniform/sub"
  attr {
    key: "T"
    value {
      type: DT_FLOAT
    }
  }
  attr {
    key: "_class"
    value {
      list {
        s: "loc:@stream/depthwise_conv2d/depthwise_kernel"
      }
    }
  }
}
node {
  name: "stream/depthwise_conv2d/depthwise_kernel/Initializer/random_uniform"
  op: "Add"
  input: "stream/depthwise_conv2d/depthwise_kernel/Initializer/random_uniform/mul"
  input: "stream/depthwise_conv2d/depthwise_kernel/Initializer/random_uniform/min"
  attr {
    key: "T"
    value {
      type: DT_FLOAT
    }
  }
  attr {
    key: "_class"
    value {
      list {
        s: "loc:@stream/depthwise_conv2d/depthwise_kernel"
      }
    }
  }
}
node {
  name: "stream/depthwise_conv2d/depthwise_kernel"
  op: "VarHandleOp"
  attr {
    key: "_class"
    value {
      list {
        s: "loc:@stream/depthwise_conv2d/depthwise_kernel"
      }
    }
  }
  attr {
    key: "allowed_devices"
    value {
      list {
      }
    }
  }
  attr {
    key: "container"
    value {
      s: ""
    }
  }
  attr {
    key: "dtype"
    value {
      type: DT_FLOAT
    }
  }
  attr {
    key: "shape"
    value {
      shape {
        dim {
          size: 11
        }
        dim {
          size: 1
        }
        dim {
          size: 40
        }
        dim {
          size: 1
        }
      }
    }
  }
  attr {
    key: "shared_name"
    value {
      s: "stream/depthwise_conv2d/depthwise_kernel"
    }
  }
}
node {
  name: "stream/depthwise_conv2d/depthwise_kernel/IsInitialized/VarIsInitializedOp"
  op: "VarIsInitializedOp"
  input: "stream/depthwise_conv2d/depthwise_kernel"
}
node {
  name: "stream/depthwise_conv2d/depthwise_kernel/Assign"
  op: "AssignVariableOp"
  input: "stream/depthwise_conv2d/depthwise_kernel"
  input: "stream/depthwise_conv2d/depthwise_kernel/Initializer/random_uniform"
  attr {
    key: "dtype"
    value {
      type: DT_FLOAT
    }
  }
}
node {
  name: "stream/depthwise_conv2d/depthwise_kernel/Read/ReadVariableOp"
  op: "ReadVariableOp"
  input: "stream/depthwise_conv2d/depthwise_kernel"
  attr {
    key: "dtype"
    value {
      type: DT_FLOAT
    }
  }
}
node {
  name: "stream/depthwise_conv2d/depthwise/ReadVariableOp"
  op: "ReadVariableOp"
  input: "stream/depthwise_conv2d/depthwise_kernel"
  attr {
    key: "dtype"
    value {
      type: DT_FLOAT
    }
  }
}
node {
  name: "stream/depthwise_conv2d/depthwise/Shape"
  op: "Const"
  attr {
    key: "dtype"
    value {
      type: DT_INT32
    }
  }
  attr {
    key: "value"
    value {
      tensor {
        dtype: DT_INT32
        tensor_shape {
          dim {
            size: 4
          }
        }
        tensor_content: "\013\000\000\000\001\000\000\000(\000\000\000\001\000\000\000"
      }
    }
  }
}
node {
  name: "stream/depthwise_conv2d/depthwise/dilation_rate"
  op: "Const"
  attr {
    key: "dtype"
    value {
      type: DT_INT32
    }
  }
  attr {
    key: "value"
    value {
      tensor {
        dtype: DT_INT32
        tensor_shape {
          dim {
            size: 2
          }
        }
        tensor_content: "\001\000\000\000\001\000\000\000"
      }
    }
  }
}
node {
  name: "stream/depthwise_conv2d/depthwise"
  op: "DepthwiseConv2dNative"
  input: "stream/Pad"
  input: "stream/depthwise_conv2d/depthwise/ReadVariableOp"
  attr {
    key: "T"
    value {
      type: DT_FLOAT
    }
  }
  attr {
    key: "data_format"
    value {
      s: "NHWC"
    }
  }
  attr {
    key: "dilations"
    value {
      list {
        i: 1
        i: 1
        i: 1
        i: 1
      }
    }
  }
  attr {
    key: "explicit_paddings"
    value {
      list {
      }
    }
  }
  attr {
    key: "padding"
    value {
      s: "VALID"
    }
  }
  attr {
    key: "strides"
    value {
      list {
        i: 1
        i: 1
        i: 1
        i: 1
      }
    }
  }
}
node {
  name: "conv2d/kernel/Initializer/random_uniform/shape"
  op: "Const"
  attr {
    key: "_class"
    value {
      list {
        s: "loc:@conv2d/kernel"
      }
    }
  }
  attr {
    key: "dtype"
    value {
      type: DT_INT32
    }
  }
  attr {
    key: "value"
    value {
      tensor {
        dtype: DT_INT32
        tensor_shape {
          dim {
            size: 4
          }
        }
        tensor_content: "\001\000\000\000\001\000\000\000(\000\000\000\200\000\000\000"
      }
    }
  }
}
node {
  name: "conv2d/kernel/Initializer/random_uniform/min"
  op: "Const"
  attr {
    key: "_class"
    value {
      list {
        s: "loc:@conv2d/kernel"
      }
    }
  }
  attr {
    key: "dtype"
    value {
      type: DT_FLOAT
    }
  }
  attr {
    key: "value"
    value {
      tensor {
        dtype: DT_FLOAT
        tensor_shape {
        }
        float_val: -0.18898223340511322
      }
    }
  }
}
node {
  name: "conv2d/kernel/Initializer/random_uniform/max"
  op: "Const"
  attr {
    key: "_class"
    value {
      list {
        s: "loc:@conv2d/kernel"
      }
    }
  }
  attr {
    key: "dtype"
    value {
      type: DT_FLOAT
    }
  }
  attr {
    key: "value"
    value {
      tensor {
        dtype: DT_FLOAT
        tensor_shape {
        }
        float_val: 0.18898223340511322
      }
    }
  }
}
node {
  name: "conv2d/kernel/Initializer/random_uniform/RandomUniform"
  op: "RandomUniform"
  input: "conv2d/kernel/Initializer/random_uniform/shape"
  attr {
    key: "T"
    value {
      type: DT_INT32
    }
  }
  attr {
    key: "_class"
    value {
      list {
        s: "loc:@conv2d/kernel"
      }
    }
  }
  attr {
    key: "dtype"
    value {
      type: DT_FLOAT
    }
  }
  attr {
    key: "seed"
    value {
      i: 0
    }
  }
  attr {
    key: "seed2"
    value {
      i: 0
    }
  }
}
node {
  name: "conv2d/kernel/Initializer/random_uniform/sub"
  op: "Sub"
  input: "conv2d/kernel/Initializer/random_uniform/max"
  input: "conv2d/kernel/Initializer/random_uniform/min"
  attr {
    key: "T"
    value {
      type: DT_FLOAT
    }
  }
  attr {
    key: "_class"
    value {
      list {
        s: "loc:@conv2d/kernel"
      }
    }
  }
}
node {
  name: "conv2d/kernel/Initializer/random_uniform/mul"
  op: "Mul"
  input: "conv2d/kernel/Initializer/random_uniform/RandomUniform"
  input: "conv2d/kernel/Initializer/random_uniform/sub"
  attr {
    key: "T"
    value {
      type: DT_FLOAT
    }
  }
  attr {
    key: "_class"
    value {
      list {
        s: "loc:@conv2d/kernel"
      }
    }
  }
}
node {
  name: "conv2d/kernel/Initializer/random_uniform"
  op: "Add"
  input: "conv2d/kernel/Initializer/random_uniform/mul"
  input: "conv2d/kernel/Initializer/random_uniform/min"
  attr {
    key: "T"
    value {
      type: DT_FLOAT
    }
  }
  attr {
    key: "_class"
    value {
      list {
        s: "loc:@conv2d/kernel"
      }
    }
  }
}
node {
  name: "conv2d/kernel"
  op: "VarHandleOp"
  attr {
    key: "_class"
    value {
      list {
        s: "loc:@conv2d/kernel"
      }
    }
  }
  attr {
    key: "allowed_devices"
    value {
      list {
      }
    }
  }
  attr {
    key: "container"
    value {
      s: ""
    }
  }
  attr {
    key: "dtype"
    value {
      type: DT_FLOAT
    }
  }
  attr {
    key: "shape"
    value {
      shape {
        dim {
          size: 1
        }
        dim {
          size: 1
        }
        dim {
          size: 40
        }
        dim {
          size: 128
        }
      }
    }
  }
  attr {
    key: "shared_name"
    value {
      s: "conv2d/kernel"
    }
  }
}
node {
  name: "conv2d/kernel/IsInitialized/VarIsInitializedOp"
  op: "VarIsInitializedOp"
  input: "conv2d/kernel"
}
node {
  name: "conv2d/kernel/Assign"
  op: "AssignVariableOp"
  input: "conv2d/kernel"
  input: "conv2d/kernel/Initializer/random_uniform"
  attr {
    key: "dtype"
    value {
      type: DT_FLOAT
    }
  }
}
node {
  name: "conv2d/kernel/Read/ReadVariableOp"
  op: "ReadVariableOp"
  input: "conv2d/kernel"
  attr {
    key: "dtype"
    value {
      type: DT_FLOAT
    }
  }
}
node {
  name: "conv2d/Conv2D/ReadVariableOp"
  op: "ReadVariableOp"
  input: "conv2d/kernel"
  attr {
    key: "dtype"
    value {
      type: DT_FLOAT
    }
  }
}
node {
  name: "conv2d/Conv2D"
  op: "Conv2D"
  input: "stream/depthwise_conv2d/depthwise"
  input: "conv2d/Conv2D/ReadVariableOp"
  attr {
    key: "T"
    value {
      type: DT_FLOAT
    }
  }
  attr {
    key: "data_format"
    value {
      s: "NHWC"
    }
  }
  attr {
    key: "dilations"
    value {
      list {
        i: 1
        i: 1
        i: 1
        i: 1
      }
    }
  }
  attr {
    key: "explicit_paddings"
    value {
      list {
      }
    }
  }
  attr {
    key: "padding"
    value {
      s: "VALID"
    }
  }
  attr {
    key: "strides"
    value {
      list {
        i: 1
        i: 1
        i: 1
        i: 1
      }
    }
  }
  attr {
    key: "use_cudnn_on_gpu"
    value {
      b: true
    }
  }
}
node {
  name: "batch_normalization/gamma/Initializer/ones"
  op: "Const"
  attr {
    key: "_class"
    value {
      list {
        s: "loc:@batch_normalization/gamma"
      }
    }
  }
  attr {
    key: "dtype"
    value {
      type: DT_FLOAT
    }
  }
  attr {
    key: "value"
    value {
      tensor {
        dtype: DT_FLOAT
        tensor_shape {
          dim {
            size: 128
          }
        }
        float_val: 1.0
      }
    }
  }
}
node {
  name: "batch_normalization/gamma"
  op: "VarHandleOp"
  attr {
    key: "_class"
    value {
      list {
        s: "loc:@batch_normalization/gamma"
      }
    }
  }
  attr {
    key: "allowed_devices"
    value {
      list {
      }
    }
  }
  attr {
    key: "container"
    value {
      s: ""
    }
  }
  attr {
    key: "dtype"
    value {
      type: DT_FLOAT
    }
  }
  attr {
    key: "shape"
    value {
      shape {
        dim {
          size: 128
        }
      }
    }
  }
  attr {
    key: "shared_name"
    value {
      s: "batch_normalization/gamma"
    }
  }
}
node {
  name: "batch_normalization/gamma/IsInitialized/VarIsInitializedOp"
  op: "VarIsInitializedOp"
  input: "batch_normalization/gamma"
}
node {
  name: "batch_normalization/gamma/Assign"
  op: "AssignVariableOp"
  input: "batch_normalization/gamma"
  input: "batch_normalization/gamma/Initializer/ones"
  attr {
    key: "dtype"
    value {
      type: DT_FLOAT
    }
  }
}
node {
  name: "batch_normalization/gamma/Read/ReadVariableOp"
  op: "ReadVariableOp"
  input: "batch_normalization/gamma"
  attr {
    key: "dtype"
    value {
      type: DT_FLOAT
    }
  }
}
node {
  name: "batch_normalization/beta/Initializer/zeros"
  op: "Const"
  attr {
    key: "_class"
    value {
      list {
        s: "loc:@batch_normalization/beta"
      }
    }
  }
  attr {
    key: "dtype"
    value {
      type: DT_FLOAT
    }
  }
  attr {
    key: "value"
    value {
      tensor {
        dtype: DT_FLOAT
        tensor_shape {
          dim {
            size: 128
          }
        }
        float_val: 0.0
      }
    }
  }
}
node {
  name: "batch_normalization/beta"
  op: "VarHandleOp"
  attr {
    key: "_class"
    value {
      list {
        s: "loc:@batch_normalization/beta"
      }
    }
  }
  attr {
    key: "allowed_devices"
    value {
      list {
      }
    }
  }
  attr {
    key: "container"
    value {
      s: ""
    }
  }
  attr {
    key: "dtype"
    value {
      type: DT_FLOAT
    }
  }
  attr {
    key: "shape"
    value {
      shape {
        dim {
          size: 128
        }
      }
    }
  }
  attr {
    key: "shared_name"
    value {
      s: "batch_normalization/beta"
    }
  }
}
node {
  name: "batch_normalization/beta/IsInitialized/VarIsInitializedOp"
  op: "VarIsInitializedOp"
  input: "batch_normalization/beta"
}
node {
  name: "batch_normalization/beta/Assign"
  op: "AssignVariableOp"
  input: "batch_normalization/beta"
  input: "batch_normalization/beta/Initializer/zeros"
  attr {
    key: "dtype"
    value {
      type: DT_FLOAT
    }
  }
}
node {
  name: "batch_normalization/beta/Read/ReadVariableOp"
  op: "ReadVariableOp"
  input: "batch_normalization/beta"
  attr {
    key: "dtype"
    value {
      type: DT_FLOAT
    }
  }
}
node {
  name: "batch_normalization/moving_mean/Initializer/zeros"
  op: "Const"
  attr {
    key: "_class"
    value {
      list {
        s: "loc:@batch_normalization/moving_mean"
      }
    }
  }
  attr {
    key: "dtype"
    value {
      type: DT_FLOAT
    }
  }
  attr {
    key: "value"
    value {
      tensor {
        dtype: DT_FLOAT
        tensor_shape {
          dim {
            size: 128
          }
        }
        float_val: 0.0
      }
    }
  }
}
node {
  name: "batch_normalization/moving_mean"
  op: "VarHandleOp"
  attr {
    key: "_class"
    value {
      list {
        s: "loc:@batch_normalization/moving_mean"
      }
    }
  }
  attr {
    key: "allowed_devices"
    value {
      list {
      }
    }
  }
  attr {
    key: "container"
    value {
      s: ""
    }
  }
  attr {
    key: "dtype"
    value {
      type: DT_FLOAT
    }
  }
  attr {
    key: "shape"
    value {
      shape {
        dim {
          size: 128
        }
      }
    }
  }
  attr {
    key: "shared_name"
    value {
      s: "batch_normalization/moving_mean"
    }
  }
}
node {
  name: "batch_normalization/moving_mean/IsInitialized/VarIsInitializedOp"
  op: "VarIsInitializedOp"
  input: "batch_normalization/moving_mean"
}
node {
  name: "batch_normalization/moving_mean/Assign"
  op: "AssignVariableOp"
  input: "batch_normalization/moving_mean"
  input: "batch_normalization/moving_mean/Initializer/zeros"
  attr {
    key: "dtype"
    value {
      type: DT_FLOAT
    }
  }
}
node {
  name: "batch_normalization/moving_mean/Read/ReadVariableOp"
  op: "ReadVariableOp"
  input: "batch_normalization/moving_mean"
  attr {
    key: "dtype"
    value {
      type: DT_FLOAT
    }
  }
}
node {
  name: "batch_normalization/moving_variance/Initializer/ones"
  op: "Const"
  attr {
    key: "_class"
    value {
      list {
        s: "loc:@batch_normalization/moving_variance"
      }
    }
  }
  attr {
    key: "dtype"
    value {
      type: DT_FLOAT
    }
  }
  attr {
    key: "value"
    value {
      tensor {
        dtype: DT_FLOAT
        tensor_shape {
          dim {
            size: 128
          }
        }
        float_val: 1.0
      }
    }
  }
}
node {
  name: "batch_normalization/moving_variance"
  op: "VarHandleOp"
  attr {
    key: "_class"
    value {
      list {
        s: "loc:@batch_normalization/moving_variance"
      }
    }
  }
  attr {
    key: "allowed_devices"
    value {
      list {
      }
    }
  }
  attr {
    key: "container"
    value {
      s: ""
    }
  }
  attr {
    key: "dtype"
    value {
      type: DT_FLOAT
    }
  }
  attr {
    key: "shape"
    value {
      shape {
        dim {
          size: 128
        }
      }
    }
  }
  attr {
    key: "shared_name"
    value {
      s: "batch_normalization/moving_variance"
    }
  }
}
node {
  name: "batch_normalization/moving_variance/IsInitialized/VarIsInitializedOp"
  op: "VarIsInitializedOp"
  input: "batch_normalization/moving_variance"
}
node {
  name: "batch_normalization/moving_variance/Assign"
  op: "AssignVariableOp"
  input: "batch_normalization/moving_variance"
  input: "batch_normalization/moving_variance/Initializer/ones"
  attr {
    key: "dtype"
    value {
      type: DT_FLOAT
    }
  }
}
node {
  name: "batch_normalization/moving_variance/Read/ReadVariableOp"
  op: "ReadVariableOp"
  input: "batch_normalization/moving_variance"
  attr {
    key: "dtype"
    value {
      type: DT_FLOAT
    }
  }
}
node {
  name: "batch_normalization/cond"
  op: "If"
  input: "keras_learning_phase"
  input: "batch_normalization/gamma"
  input: "batch_normalization/beta"
  input: "batch_normalization/moving_mean"
  input: "batch_normalization/moving_variance"
  input: "conv2d/Conv2D"
  attr {
    key: "Tcond"
    value {
      type: DT_BOOL
    }
  }
  attr {
    key: "Tin"
    value {
      list {
        type: DT_RESOURCE
        type: DT_RESOURCE
        type: DT_RESOURCE
        type: DT_RESOURCE
        type: DT_FLOAT
      }
    }
  }
  attr {
    key: "Tout"
    value {
      list {
        type: DT_FLOAT
        type: DT_FLOAT
        type: DT_FLOAT
        type: DT_VARIANT
        type: DT_VARIANT
        type: DT_VARIANT
        type: DT_VARIANT
        type: DT_VARIANT
        type: DT_VARIANT
        type: DT_VARIANT
      }
    }
  }
  attr {
    key: "_lower_using_switch_merge"
    value {
      b: true
    }
  }
  attr {
    key: "_read_only_resource_inputs"
    value {
      list {
        i: 1
        i: 2
        i: 3
        i: 4
      }
    }
  }
  attr {
    key: "else_branch"
    value {
      func {
        name: "batch_normalization_cond_false_1042"
      }
    }
  }
  attr {
    key: "output_shapes"
    value {
      list {
        shape {
          dim {
            size: 256
          }
          dim {
            size: 98
          }
          dim {
            size: 1
          }
          dim {
            size: 128
          }
        }
        shape {
          dim {
            size: 128
          }
        }
        shape {
          dim {
            size: 128
          }
        }
        shape {
        }
        shape {
        }
        shape {
        }
        shape {
        }
        shape {
        }
        shape {
        }
        shape {
        }
      }
    }
  }
  attr {
    key: "then_branch"
    value {
      func {
        name: "batch_normalization_cond_true_1041"
      }
    }
  }
}
node {
  name: "batch_normalization/cond/Identity"
  op: "Identity"
  input: "batch_normalization/cond"
  attr {
    key: "T"
    value {
      type: DT_FLOAT
    }
  }
}
node {
  name: "batch_normalization/cond/Identity_1"
  op: "Identity"
  input: "batch_normalization/cond:1"
  attr {
    key: "T"
    value {
      type: DT_FLOAT
    }
  }
}
node {
  name: "batch_normalization/cond/Identity_2"
  op: "Identity"
  input: "batch_normalization/cond:2"
  attr {
    key: "T"
    value {
      type: DT_FLOAT
    }
  }
}
node {
  name: "batch_normalization/cond/Identity_3"
  op: "Identity"
  input: "batch_normalization/cond:3"
  attr {
    key: "T"
    value {
      type: DT_VARIANT
    }
  }
}
node {
  name: "batch_normalization/cond/Identity_4"
  op: "Identity"
  input: "batch_normalization/cond:4"
  attr {
    key: "T"
    value {
      type: DT_VARIANT
    }
  }
}
node {
  name: "batch_normalization/cond/Identity_5"
  op: "Identity"
  input: "batch_normalization/cond:5"
  attr {
    key: "T"
    value {
      type: DT_VARIANT
    }
  }
}
node {
  name: "batch_normalization/cond/Identity_6"
  op: "Identity"
  input: "batch_normalization/cond:6"
  attr {
    key: "T"
    value {
      type: DT_VARIANT
    }
  }
}
node {
  name: "batch_normalization/cond/Identity_7"
  op: "Identity"
  input: "batch_normalization/cond:7"
  attr {
    key: "T"
    value {
      type: DT_VARIANT
    }
  }
}
node {
  name: "batch_normalization/cond/Identity_8"
  op: "Identity"
  input: "batch_normalization/cond:8"
  attr {
    key: "T"
    value {
      type: DT_VARIANT
    }
  }
}
node {
  name: "batch_normalization/cond/Identity_9"
  op: "Identity"
  input: "batch_normalization/cond:9"
  attr {
    key: "T"
    value {
      type: DT_VARIANT
    }
  }
}
node {
  name: "batch_normalization/cond_1"
  op: "StatelessIf"
  input: "keras_learning_phase"
  attr {
    key: "Tcond"
    value {
      type: DT_BOOL
    }
  }
  attr {
    key: "Tin"
    value {
      list {
      }
    }
  }
  attr {
    key: "Tout"
    value {
      list {
        type: DT_FLOAT
      }
    }
  }
  attr {
    key: "_lower_using_switch_merge"
    value {
      b: true
    }
  }
  attr {
    key: "_read_only_resource_inputs"
    value {
      list {
      }
    }
  }
  attr {
    key: "else_branch"
    value {
      func {
        name: "batch_normalization_cond_1_false_1110"
      }
    }
  }
  attr {
    key: "output_shapes"
    value {
      list {
        shape {
        }
      }
    }
  }
  attr {
    key: "then_branch"
    value {
      func {
        name: "batch_normalization_cond_1_true_1109"
      }
    }
  }
}
node {
  name: "batch_normalization/cond_1/Identity"
  op: "Identity"
  input: "batch_normalization/cond_1"
  attr {
    key: "T"
    value {
      type: DT_FLOAT
    }
  }
}
node {
  name: "batch_normalization/AssignMovingAvg/sub/x"
  op: "Const"
  attr {
    key: "_class"
    value {
      list {
        s: "loc:@batch_normalization/moving_mean"
      }
    }
  }
  attr {
    key: "dtype"
    value {
      type: DT_FLOAT
    }
  }
  attr {
    key: "value"
    value {
      tensor {
        dtype: DT_FLOAT
        tensor_shape {
        }
        float_val: 1.0
      }
    }
  }
}
node {
  name: "batch_normalization/AssignMovingAvg/sub"
  op: "Sub"
  input: "batch_normalization/AssignMovingAvg/sub/x"
  input: "batch_normalization/cond_1/Identity"
  attr {
    key: "T"
    value {
      type: DT_FLOAT
    }
  }
  attr {
    key: "_class"
    value {
      list {
        s: "loc:@batch_normalization/moving_mean"
      }
    }
  }
}
node {
  name: "batch_normalization/AssignMovingAvg/ReadVariableOp"
  op: "ReadVariableOp"
  input: "batch_normalization/moving_mean"
  attr {
    key: "dtype"
    value {
      type: DT_FLOAT
    }
  }
}
node {
  name: "batch_normalization/AssignMovingAvg/sub_1"
  op: "Sub"
  input: "batch_normalization/AssignMovingAvg/ReadVariableOp"
  input: "batch_normalization/cond/Identity_1"
  attr {
    key: "T"
    value {
      type: DT_FLOAT
    }
  }
  attr {
    key: "_class"
    value {
      list {
        s: "loc:@batch_normalization/moving_mean"
      }
    }
  }
}
node {
  name: "batch_normalization/AssignMovingAvg/mul"
  op: "Mul"
  input: "batch_normalization/AssignMovingAvg/sub_1"
  input: "batch_normalization/AssignMovingAvg/sub"
  attr {
    key: "T"
    value {
      type: DT_FLOAT
    }
  }
  attr {
    key: "_class"
    value {
      list {
        s: "loc:@batch_normalization/moving_mean"
      }
    }
  }
}
node {
  name: "batch_normalization/AssignMovingAvg/AssignSubVariableOp"
  op: "AssignSubVariableOp"
  input: "batch_normalization/moving_mean"
  input: "batch_normalization/AssignMovingAvg/mul"
  attr {
    key: "_class"
    value {
      list {
        s: "loc:@batch_normalization/moving_mean"
      }
    }
  }
  attr {
    key: "dtype"
    value {
      type: DT_FLOAT
    }
  }
}
node {
  name: "batch_normalization/AssignMovingAvg/ReadVariableOp_1"
  op: "ReadVariableOp"
  input: "batch_normalization/moving_mean"
  input: "^batch_normalization/AssignMovingAvg/AssignSubVariableOp"
  attr {
    key: "_class"
    value {
      list {
        s: "loc:@batch_normalization/moving_mean"
      }
    }
  }
  attr {
    key: "dtype"
    value {
      type: DT_FLOAT
    }
  }
}
node {
  name: "batch_normalization/AssignMovingAvg_1/sub/x"
  op: "Const"
  attr {
    key: "_class"
    value {
      list {
        s: "loc:@batch_normalization/moving_variance"
      }
    }
  }
  attr {
    key: "dtype"
    value {
      type: DT_FLOAT
    }
  }
  attr {
    key: "value"
    value {
      tensor {
        dtype: DT_FLOAT
        tensor_shape {
        }
        float_val: 1.0
      }
    }
  }
}
node {
  name: "batch_normalization/AssignMovingAvg_1/sub"
  op: "Sub"
  input: "batch_normalization/AssignMovingAvg_1/sub/x"
  input: "batch_normalization/cond_1/Identity"
  attr {
    key: "T"
    value {
      type: DT_FLOAT
    }
  }
  attr {
    key: "_class"
    value {
      list {
        s: "loc:@batch_normalization/moving_variance"
      }
    }
  }
}
node {
  name: "batch_normalization/AssignMovingAvg_1/ReadVariableOp"
  op: "ReadVariableOp"
  input: "batch_normalization/moving_variance"
  attr {
    key: "dtype"
    value {
      type: DT_FLOAT
    }
  }
}
node {
  name: "batch_normalization/AssignMovingAvg_1/sub_1"
  op: "Sub"
  input: "batch_normalization/AssignMovingAvg_1/ReadVariableOp"
  input: "batch_normalization/cond/Identity_2"
  attr {
    key: "T"
    value {
      type: DT_FLOAT
    }
  }
  attr {
    key: "_class"
    value {
      list {
        s: "loc:@batch_normalization/moving_variance"
      }
    }
  }
}
node {
  name: "batch_normalization/AssignMovingAvg_1/mul"
  op: "Mul"
  input: "batch_normalization/AssignMovingAvg_1/sub_1"
  input: "batch_normalization/AssignMovingAvg_1/sub"
  attr {
    key: "T"
    value {
      type: DT_FLOAT
    }
  }
  attr {
    key: "_class"
    value {
      list {
        s: "loc:@batch_normalization/moving_variance"
      }
    }
  }
}
node {
  name: "batch_normalization/AssignMovingAvg_1/AssignSubVariableOp"
  op: "AssignSubVariableOp"
  input: "batch_normalization/moving_variance"
  input: "batch_normalization/AssignMovingAvg_1/mul"
  attr {
    key: "_class"
    value {
      list {
        s: "loc:@batch_normalization/moving_variance"
      }
    }
  }
  attr {
    key: "dtype"
    value {
      type: DT_FLOAT
    }
  }
}
node {
  name: "batch_normalization/AssignMovingAvg_1/ReadVariableOp_1"
  op: "ReadVariableOp"
  input: "batch_normalization/moving_variance"
  input: "^batch_normalization/AssignMovingAvg_1/AssignSubVariableOp"
  attr {
    key: "_class"
    value {
      list {
        s: "loc:@batch_normalization/moving_variance"
      }
    }
  }
  attr {
    key: "dtype"
    value {
      type: DT_FLOAT
    }
  }
}
node {
  name: "activation/Relu"
  op: "Relu"
  input: "batch_normalization/cond/Identity"
  attr {
    key: "T"
    value {
      type: DT_FLOAT
    }
  }
}
node {
  name: "dropout/cond"
  op: "If"
  input: "keras_learning_phase"
  input: "activation/Relu"
  attr {
    key: "Tcond"
    value {
      type: DT_BOOL
    }
  }
  attr {
    key: "Tin"
    value {
      list {
        type: DT_FLOAT
      }
    }
  }
  attr {
    key: "Tout"
    value {
      list {
        type: DT_FLOAT
        type: DT_VARIANT
        type: DT_VARIANT
        type: DT_VARIANT
        type: DT_VARIANT
        type: DT_VARIANT
        type: DT_VARIANT
        type: DT_VARIANT
      }
    }
  }
  attr {
    key: "_lower_using_switch_merge"
    value {
      b: true
    }
  }
  attr {
    key: "_read_only_resource_inputs"
    value {
      list {
      }
    }
  }
  attr {
    key: "else_branch"
    value {
      func {
        name: "dropout_cond_false_1131"
      }
    }
  }
  attr {
    key: "output_shapes"
    value {
      list {
        shape {
          dim {
            size: 256
          }
          dim {
            size: 98
          }
          dim {
            size: 1
          }
          dim {
            size: 128
          }
        }
        shape {
        }
        shape {
        }
        shape {
        }
        shape {
        }
        shape {
        }
        shape {
        }
        shape {
        }
      }
    }
  }
  attr {
    key: "then_branch"
    value {
      func {
        name: "dropout_cond_true_1130"
      }
    }
  }
}
node {
  name: "dropout/cond/Identity"
  op: "Identity"
  input: "dropout/cond"
  attr {
    key: "T"
    value {
      type: DT_FLOAT
    }
  }
}
node {
  name: "dropout/cond/Identity_1"
  op: "Identity"
  input: "dropout/cond:1"
  attr {
    key: "T"
    value {
      type: DT_VARIANT
    }
  }
}
node {
  name: "dropout/cond/Identity_2"
  op: "Identity"
  input: "dropout/cond:2"
  attr {
    key: "T"
    value {
      type: DT_VARIANT
    }
  }
}
node {
  name: "dropout/cond/Identity_3"
  op: "Identity"
  input: "dropout/cond:3"
  attr {
    key: "T"
    value {
      type: DT_VARIANT
    }
  }
}
node {
  name: "dropout/cond/Identity_4"
  op: "Identity"
  input: "dropout/cond:4"
  attr {
    key: "T"
    value {
      type: DT_VARIANT
    }
  }
}
node {
  name: "dropout/cond/Identity_5"
  op: "Identity"
  input: "dropout/cond:5"
  attr {
    key: "T"
    value {
      type: DT_VARIANT
    }
  }
}
node {
  name: "dropout/cond/Identity_6"
  op: "Identity"
  input: "dropout/cond:6"
  attr {
    key: "T"
    value {
      type: DT_VARIANT
    }
  }
}
node {
  name: "dropout/cond/Identity_7"
  op: "Identity"
  input: "dropout/cond:7"
  attr {
    key: "T"
    value {
      type: DT_VARIANT
    }
  }
}
node {
  name: "stream_1/Pad/paddings"
  op: "Const"
  attr {
    key: "dtype"
    value {
      type: DT_INT32
    }
  }
  attr {
    key: "value"
    value {
      tensor {
        dtype: DT_INT32
        tensor_shape {
          dim {
            size: 4
          }
          dim {
            size: 2
          }
        }
        tensor_content: "…"
      }
    }
  }
}
node {
  name: "stream_1/Pad"
  op: "Pad"
  input: "dropout/cond/Identity"
  input: "stream_1/Pad/paddings"
  attr {
    key: "T"
    value {
      type: DT_FLOAT
    }
  }
  attr {
    key: "Tpaddings"
    value {
      type: DT_INT32
    }
  }
}
node {
  name: "stream_1/depthwise_conv2d_1/depthwise_kernel/Initializer/random_uniform/shape"
  op: "Const"
  attr {
    key: "_class"
    value {
      list {
        s: "loc:@stream_1/depthwise_conv2d_1/depthwise_kernel"
      }
    }
  }
  attr {
    key: "dtype"
    value {
      type: DT_INT32
    }
  }
  attr {
    key: "value"
    value {
      tensor {
        dtype: DT_INT32
        tensor_shape {
          dim {
            size: 4
          }
        }
        tensor_content: "\r\000\000\000\001\000\000\000\200\000\000\000\001\000\000\000"
      }
    }
  }
}
node {
  name: "stream_1/depthwise_conv2d_1/depthwise_kernel/Initializer/random_uniform/min"
  op: "Const"
  attr {
    key: "_class"
    value {
      list {
        s: "loc:@stream_1/depthwise_conv2d_1/depthwise_kernel"
      }
    }
  }
  attr {
    key: "dtype"
    value {
      type: DT_FLOAT
    }
  }
  attr {
    key: "value"
    value {
      tensor {
        dtype: DT_FLOAT
        tensor_shape {
        }
        float_val: -0.05981485918164253
      }
    }
  }
}
node {
  name: "stream_1/depthwise_conv2d_1/depthwise_kernel/Initializer/random_uniform/max"
  op: "Const"
  attr {
    key: "_class"
    value {
      list {
        s: "loc:@stream_1/depthwise_conv2d_1/depthwise_kernel"
      }
    }
  }
  attr {
    key: "dtype"
    value {
      type: DT_FLOAT
    }
  }
  attr {
    key: "value"
    value {
      tensor {
        dtype: DT_FLOAT
        tensor_shape {
        }
        float_val: 0.05981485918164253
      }
    }
  }
}
node {
  name: "stream_1/depthwise_conv2d_1/depthwise_kernel/Initializer/random_uniform/RandomUniform"
  op: "RandomUniform"
  input: "stream_1/depthwise_conv2d_1/depthwise_kernel/Initializer/random_uniform/shape"
  attr {
    key: "T"
    value {
      type: DT_INT32
    }
  }
  attr {
    key: "_class"
    value {
      list {
        s: "loc:@stream_1/depthwise_conv2d_1/depthwise_kernel"
      }
    }
  }
  attr {
    key: "dtype"
    value {
      type: DT_FLOAT
    }
  }
  attr {
    key: "seed"
    value {
      i: 0
    }
  }
  attr {
    key: "seed2"
    value {
      i: 0
    }
  }
}
node {
  name: "stream_1/depthwise_conv2d_1/depthwise_kernel/Initializer/random_uniform/sub"
  op: "Sub"
  input: "stream_1/depthwise_conv2d_1/depthwise_kernel/Initializer/random_uniform/max"
  input: "stream_1/depthwise_conv2d_1/depthwise_kernel/Initializer/random_uniform/min"
  attr {
    key: "T"
    value {
      type: DT_FLOAT
    }
  }
  attr {
    key: "_class"
    value {
      list {
        s: "loc:@stream_1/depthwise_conv2d_1/depthwise_kernel"
      }
    }
  }
}
node {
  name: "stream_1/depthwise_conv2d_1/depthwise_kernel/Initializer/random_uniform/mul"
  op: "Mul"
  input: "stream_1/depthwise_conv2d_1/depthwise_kernel/Initializer/random_uniform/RandomUniform"
  input: "stream_1/depthwise_conv2d_1/depthwise_kernel/Initializer/random_uniform/sub"
  attr {
    key: "T"
    value {
      type: DT_FLOAT
    }
  }
  attr {
    key: "_class"
    value {
      list {
        s: "loc:@stream_1/depthwise_conv2d_1/depthwise_kernel"
      }
    }
  }
}
node {
  name: "stream_1/depthwise_conv2d_1/depthwise_kernel/Initializer/random_uniform"
  op: "Add"
  input: "stream_1/depthwise_conv2d_1/depthwise_kernel/Initializer/random_uniform/mul"
  input: "stream_1/depthwise_conv2d_1/depthwise_kernel/Initializer/random_uniform/min"
  attr {
    key: "T"
    value {
      type: DT_FLOAT
    }
  }
  attr {
    key: "_class"
    value {
      list {
        s: "loc:@stream_1/depthwise_conv2d_1/depthwise_kernel"
      }
    }
  }
}
node {
  name: "stream_1/depthwise_conv2d_1/depthwise_kernel"
  op: "VarHandleOp"
  attr {
    key: "_class"
    value {
      list {
        s: "loc:@stream_1/depthwise_conv2d_1/depthwise_kernel"
      }
    }
  }
  attr {
    key: "allowed_devices"
    value {
      list {
      }
    }
  }
  attr {
    key: "container"
    value {
      s: ""
    }
  }
  attr {
    key: "dtype"
    value {
      type: DT_FLOAT
    }
  }
  attr {
    key: "shape"
    value {
      shape {
        dim {
          size: 13
        }
        dim {
          size: 1
        }
        dim {
          size: 128
        }
        dim {
          size: 1
        }
      }
    }
  }
  attr {
    key: "shared_name"
    value {
      s: "stream_1/depthwise_conv2d_1/depthwise_kernel"
    }
  }
}
node {
  name: "stream_1/depthwise_conv2d_1/depthwise_kernel/IsInitialized/VarIsInitializedOp"
  op: "VarIsInitializedOp"
  input: "stream_1/depthwise_conv2d_1/depthwise_kernel"
}
node {
  name: "stream_1/depthwise_conv2d_1/depthwise_kernel/Assign"
  op: "AssignVariableOp"
  input: "stream_1/depthwise_conv2d_1/depthwise_kernel"
  input: "stream_1/depthwise_conv2d_1/depthwise_kernel/Initializer/random_uniform"
  attr {
    key: "dtype"
    value {
      type: DT_FLOAT
    }
  }
}
node {
  name: "stream_1/depthwise_conv2d_1/depthwise_kernel/Read/ReadVariableOp"
  op: "ReadVariableOp"
  input: "stream_1/depthwise_conv2d_1/depthwise_kernel"
  attr {
    key: "dtype"
    value {
      type: DT_FLOAT
    }
  }
}
node {
  name: "stream_1/depthwise_conv2d_1/depthwise/ReadVariableOp"
  op: "ReadVariableOp"
  input: "stream_1/depthwise_conv2d_1/depthwise_kernel"
  attr {
    key: "dtype"
    value {
      type: DT_FLOAT
    }
  }
}
node {
  name: "stream_1/depthwise_conv2d_1/depthwise/Shape"
  op: "Const"
  attr {
    key: "dtype"
    value {
      type: DT_INT32
    }
  }
  attr {
    key: "value"
    value {
      tensor {
        dtype: DT_INT32
        tensor_shape {
          dim {
            size: 4
          }
        }
        tensor_content: "\r\000\000\000\001\000\000\000\200\000\000\000\001\000\000\000"
      }
    }
  }
}
node {
  name: "stream_1/depthwise_conv2d_1/depthwise/dilation_rate"
  op: "Const"
  attr {
    key: "dtype"
    value {
      type: DT_INT32
    }
  }
  attr {
    key: "value"
    value {
      tensor {
        dtype: DT_INT32
        tensor_shape {
          dim {
            size: 2
          }
        }
        tensor_content: "\001\000\000\000\001\000\000\000"
      }
    }
  }
}
node {
  name: "stream_1/depthwise_conv2d_1/depthwise"
  op: "DepthwiseConv2dNative"
  input: "stream_1/Pad"
  input: "stream_1/depthwise_conv2d_1/depthwise/ReadVariableOp"
  attr {
    key: "T"
    value {
      type: DT_FLOAT
    }
  }
  attr {
    key: "data_format"
    value {
      s: "NHWC"
    }
  }
  attr {
    key: "dilations"
    value {
      list {
        i: 1
        i: 1
        i: 1
        i: 1
      }
    }
  }
  attr {
    key: "explicit_paddings"
    value {
      list {
      }
    }
  }
  attr {
    key: "padding"
    value {
      s: "VALID"
    }
  }
  attr {
    key: "strides"
    value {
      list {
        i: 1
        i: 1
        i: 1
        i: 1
      }
    }
  }
}
node {
  name: "conv2d_1/kernel/Initializer/random_uniform/shape"
  op: "Const"
  attr {
    key: "_class"
    value {
      list {
        s: "loc:@conv2d_1/kernel"
      }
    }
  }
  attr {
    key: "dtype"
    value {
      type: DT_INT32
    }
  }
  attr {
    key: "value"
    value {
      tensor {
        dtype: DT_INT32
        tensor_shape {
          dim {
            size: 4
          }
        }
        tensor_content: "\001\000\000\000\001\000\000\000\200\000\000\000@\000\000\000"
      }
    }
  }
}
node {
  name: "conv2d_1/kernel/Initializer/random_uniform/min"
  op: "Const"
  attr {
    key: "_class"
    value {
      list {
        s: "loc:@conv2d_1/kernel"
      }
    }
  }
  attr {
    key: "dtype"
    value {
      type: DT_FLOAT
    }
  }
  attr {
    key: "value"
    value {
      tensor {
        dtype: DT_FLOAT
        tensor_shape {
        }
        float_val: -0.1767766922712326
      }
    }
  }
}
node {
  name: "conv2d_1/kernel/Initializer/random_uniform/max"
  op: "Const"
  attr {
    key: "_class"
    value {
      list {
        s: "loc:@conv2d_1/kernel"
      }
    }
  }
  attr {
    key: "dtype"
    value {
      type: DT_FLOAT
    }
  }
  attr {
    key: "value"
    value {
      tensor {
        dtype: DT_FLOAT
        tensor_shape {
        }
        float_val: 0.1767766922712326
      }
    }
  }
}
node {
  name: "conv2d_1/kernel/Initializer/random_uniform/RandomUniform"
  op: "RandomUniform"
  input: "conv2d_1/kernel/Initializer/random_uniform/shape"
  attr {
    key: "T"
    value {
      type: DT_INT32
    }
  }
  attr {
    key: "_class"
    value {
      list {
        s: "loc:@conv2d_1/kernel"
      }
    }
  }
  attr {
    key: "dtype"
    value {
      type: DT_FLOAT
    }
  }
  attr {
    key: "seed"
    value {
      i: 0
    }
  }
  attr {
    key: "seed2"
    value {
      i: 0
    }
  }
}
node {
  name: "conv2d_1/kernel/Initializer/random_uniform/sub"
  op: "Sub"
  input: "conv2d_1/kernel/Initializer/random_uniform/max"
  input: "conv2d_1/kernel/Initializer/random_uniform/min"
  attr {
    key: "T"
    value {
      type: DT_FLOAT
    }
  }
  attr {
    key: "_class"
    value {
      list {
        s: "loc:@conv2d_1/kernel"
      }
    }
  }
}
node {
  name: "conv2d_1/kernel/Initializer/random_uniform/mul"
  op: "Mul"
  input: "conv2d_1/kernel/Initializer/random_uniform/RandomUniform"
  input: "conv2d_1/kernel/Initializer/random_uniform/sub"
  attr {
    key: "T"
    value {
      type: DT_FLOAT
    }
  }
  attr {
    key: "_class"
    value {
      list {
        s: "loc:@conv2d_1/kernel"
      }
    }
  }
}
node {
  name: "conv2d_1/kernel/Initializer/random_uniform"
  op: "Add"
  input: "conv2d_1/kernel/Initializer/random_uniform/mul"
  input: "conv2d_1/kernel/Initializer/random_uniform/min"
  attr {
    key: "T"
    value {
      type: DT_FLOAT
    }
  }
  attr {
    key: "_class"
    value {
      list {
        s: "loc:@conv2d_1/kernel"
      }
    }
  }
}
node {
  name: "conv2d_1/kernel"
  op: "VarHandleOp"
  attr {
    key: "_class"
    value {
      list {
        s: "loc:@conv2d_1/kernel"
      }
    }
  }
  attr {
    key: "allowed_devices"
    value {
      list {
      }
    }
  }
  attr {
    key: "container"
    value {
      s: ""
    }
  }
  attr {
    key: "dtype"
    value {
      type: DT_FLOAT
    }
  }
  attr {
    key: "shape"
    value {
      shape {
        dim {
          size: 1
        }
        dim {
          size: 1
        }
        dim {
          size: 128
        }
        dim {
          size: 64
        }
      }
    }
  }
  attr {
    key: "shared_name"
    value {
      s: "conv2d_1/kernel"
    }
  }
}
node {
  name: "conv2d_1/kernel/IsInitialized/VarIsInitializedOp"
  op: "VarIsInitializedOp"
  input: "conv2d_1/kernel"
}
node {
  name: "conv2d_1/kernel/Assign"
  op: "AssignVariableOp"
  input: "conv2d_1/kernel"
  input: "conv2d_1/kernel/Initializer/random_uniform"
  attr {
    key: "dtype"
    value {
      type: DT_FLOAT
    }
  }
}
node {
  name: "conv2d_1/kernel/Read/ReadVariableOp"
  op: "ReadVariableOp"
  input: "conv2d_1/kernel"
  attr {
    key: "dtype"
    value {
      type: DT_FLOAT
    }
  }
}
node {
  name: "conv2d_1/Conv2D/ReadVariableOp"
  op: "ReadVariableOp"
  input: "conv2d_1/kernel"
  attr {
    key: "dtype"
    value {
      type: DT_FLOAT
    }
  }
}
node {
  name: "conv2d_1/Conv2D"
  op: "Conv2D"
  input: "stream_1/depthwise_conv2d_1/depthwise"
  input: "conv2d_1/Conv2D/ReadVariableOp"
  attr {
    key: "T"
    value {
      type: DT_FLOAT
    }
  }
  attr {
    key: "data_format"
    value {
      s: "NHWC"
    }
  }
  attr {
    key: "dilations"
    value {
      list {
        i: 1
        i: 1
        i: 1
        i: 1
      }
    }
  }
  attr {
    key: "explicit_paddings"
    value {
      list {
      }
    }
  }
  attr {
    key: "padding"
    value {
      s: "VALID"
    }
  }
  attr {
    key: "strides"
    value {
      list {
        i: 1
        i: 1
        i: 1
        i: 1
      }
    }
  }
  attr {
    key: "use_cudnn_on_gpu"
    value {
      b: true
    }
  }
}
node {
  name: "batch_normalization_1/gamma/Initializer/ones"
  op: "Const"
  attr {
    key: "_class"
    value {
      list {
        s: "loc:@batch_normalization_1/gamma"
      }
    }
  }
  attr {
    key: "dtype"
    value {
      type: DT_FLOAT
    }
  }
  attr {
    key: "value"
    value {
      tensor {
        dtype: DT_FLOAT
        tensor_shape {
          dim {
            size: 64
          }
        }
        float_val: 1.0
      }
    }
  }
}
node {
  name: "batch_normalization_1/gamma"
  op: "VarHandleOp"
  attr {
    key: "_class"
    value {
      list {
        s: "loc:@batch_normalization_1/gamma"
      }
    }
  }
  attr {
    key: "allowed_devices"
    value {
      list {
      }
    }
  }
  attr {
    key: "container"
    value {
      s: ""
    }
  }
  attr {
    key: "dtype"
    value {
      type: DT_FLOAT
    }
  }
  attr {
    key: "shape"
    value {
      shape {
        dim {
          size: 64
        }
      }
    }
  }
  attr {
    key: "shared_name"
    value {
      s: "batch_normalization_1/gamma"
    }
  }
}
node {
  name: "batch_normalization_1/gamma/IsInitialized/VarIsInitializedOp"
  op: "VarIsInitializedOp"
  input: "batch_normalization_1/gamma"
}
node {
  name: "batch_normalization_1/gamma/Assign"
  op: "AssignVariableOp"
  input: "batch_normalization_1/gamma"
  input: "batch_normalization_1/gamma/Initializer/ones"
  attr {
    key: "dtype"
    value {
      type: DT_FLOAT
    }
  }
}
node {
  name: "batch_normalization_1/gamma/Read/ReadVariableOp"
  op: "ReadVariableOp"
  input: "batch_normalization_1/gamma"
  attr {
    key: "dtype"
    value {
      type: DT_FLOAT
    }
  }
}
node {
  name: "batch_normalization_1/beta/Initializer/zeros"
  op: "Const"
  attr {
    key: "_class"
    value {
      list {
        s: "loc:@batch_normalization_1/beta"
      }
    }
  }
  attr {
    key: "dtype"
    value {
      type: DT_FLOAT
    }
  }
  attr {
    key: "value"
    value {
      tensor {
        dtype: DT_FLOAT
        tensor_shape {
          dim {
            size: 64
          }
        }
        float_val: 0.0
      }
    }
  }
}
node {
  name: "batch_normalization_1/beta"
  op: "VarHandleOp"
  attr {
    key: "_class"
    value {
      list {
        s: "loc:@batch_normalization_1/beta"
      }
    }
  }
  attr {
    key: "allowed_devices"
    value {
      list {
      }
    }
  }
  attr {
    key: "container"
    value {
      s: ""
    }
  }
  attr {
    key: "dtype"
    value {
      type: DT_FLOAT
    }
  }
  attr {
    key: "shape"
    value {
      shape {
        dim {
          size: 64
        }
      }
    }
  }
  attr {
    key: "shared_name"
    value {
      s: "batch_normalization_1/beta"
    }
  }
}
node {
  name: "batch_normalization_1/beta/IsInitialized/VarIsInitializedOp"
  op: "VarIsInitializedOp"
  input: "batch_normalization_1/beta"
}
node {
  name: "batch_normalization_1/beta/Assign"
  op: "AssignVariableOp"
  input: "batch_normalization_1/beta"
  input: "batch_normalization_1/beta/Initializer/zeros"
  attr {
    key: "dtype"
    value {
      type: DT_FLOAT
    }
  }
}
node {
  name: "batch_normalization_1/beta/Read/ReadVariableOp"
  op: "ReadVariableOp"
  input: "batch_normalization_1/beta"
  attr {
    key: "dtype"
    value {
      type: DT_FLOAT
    }
  }
}
node {
  name: "batch_normalization_1/moving_mean/Initializer/zeros"
  op: "Const"
  attr {
    key: "_class"
    value {
      list {
        s: "loc:@batch_normalization_1/moving_mean"
      }
    }
  }
  attr {
    key: "dtype"
    value {
      type: DT_FLOAT
    }
  }
  attr {
    key: "value"
    value {
      tensor {
        dtype: DT_FLOAT
        tensor_shape {
          dim {
            size: 64
          }
        }
        float_val: 0.0
      }
    }
  }
}
node {
  name: "batch_normalization_1/moving_mean"
  op: "VarHandleOp"
  attr {
    key: "_class"
    value {
      list {
        s: "loc:@batch_normalization_1/moving_mean"
      }
    }
  }
  attr {
    key: "allowed_devices"
    value {
      list {
      }
    }
  }
  attr {
    key: "container"
    value {
      s: ""
    }
  }
  attr {
    key: "dtype"
    value {
      type: DT_FLOAT
    }
  }
  attr {
    key: "shape"
    value {
      shape {
        dim {
          size: 64
        }
      }
    }
  }
  attr {
    key: "shared_name"
    value {
      s: "batch_normalization_1/moving_mean"
    }
  }
}
node {
  name: "batch_normalization_1/moving_mean/IsInitialized/VarIsInitializedOp"
  op: "VarIsInitializedOp"
  input: "batch_normalization_1/moving_mean"
}
node {
  name: "batch_normalization_1/moving_mean/Assign"
  op: "AssignVariableOp"
  input: "batch_normalization_1/moving_mean"
  input: "batch_normalization_1/moving_mean/Initializer/zeros"
  attr {
    key: "dtype"
    value {
      type: DT_FLOAT
    }
  }
}
node {
  name: "batch_normalization_1/moving_mean/Read/ReadVariableOp"
  op: "ReadVariableOp"
  input: "batch_normalization_1/moving_mean"
  attr {
    key: "dtype"
    value {
      type: DT_FLOAT
    }
  }
}
node {
  name: "batch_normalization_1/moving_variance/Initializer/ones"
  op: "Const"
  attr {
    key: "_class"
    value {
      list {
        s: "loc:@batch_normalization_1/moving_variance"
      }
    }
  }
  attr {
    key: "dtype"
    value {
      type: DT_FLOAT
    }
  }
  attr {
    key: "value"
    value {
      tensor {
        dtype: DT_FLOAT
        tensor_shape {
          dim {
            size: 64
          }
        }
        float_val: 1.0
      }
    }
  }
}
node {
  name: "batch_normalization_1/moving_variance"
  op: "VarHandleOp"
  attr {
    key: "_class"
    value {
      list {
        s: "loc:@batch_normalization_1/moving_variance"
      }
    }
  }
  attr {
    key: "allowed_devices"
    value {
      list {
      }
    }
  }
  attr {
    key: "container"
    value {
      s: ""
    }
  }
  attr {
    key: "dtype"
    value {
      type: DT_FLOAT
    }
  }
  attr {
    key: "shape"
    value {
      shape {
        dim {
          size: 64
        }
      }
    }
  }
  attr {
    key: "shared_name"
    value {
      s: "batch_normalization_1/moving_variance"
    }
  }
}
node {
  name: "batch_normalization_1/moving_variance/IsInitialized/VarIsInitializedOp"
  op: "VarIsInitializedOp"
  input: "batch_normalization_1/moving_variance"
}
node {
  name: "batch_normalization_1/moving_variance/Assign"
  op: "AssignVariableOp"
  input: "batch_normalization_1/moving_variance"
  input: "batch_normalization_1/moving_variance/Initializer/ones"
  attr {
    key: "dtype"
    value {
      type: DT_FLOAT
    }
  }
}
node {
  name: "batch_normalization_1/moving_variance/Read/ReadVariableOp"
  op: "ReadVariableOp"
  input: "batch_normalization_1/moving_variance"
  attr {
    key: "dtype"
    value {
      type: DT_FLOAT
    }
  }
}
node {
  name: "batch_normalization_1/cond"
  op: "If"
  input: "keras_learning_phase"
  input: "batch_normalization_1/gamma"
  input: "batch_normalization_1/beta"
  input: "batch_normalization_1/moving_mean"
  input: "batch_normalization_1/moving_variance"
  input: "conv2d_1/Conv2D"
  attr {
    key: "Tcond"
    value {
      type: DT_BOOL
    }
  }
  attr {
    key: "Tin"
    value {
      list {
        type: DT_RESOURCE
        type: DT_RESOURCE
        type: DT_RESOURCE
        type: DT_RESOURCE
        type: DT_FLOAT
      }
    }
  }
  attr {
    key: "Tout"
    value {
      list {
        type: DT_FLOAT
        type: DT_FLOAT
        type: DT_FLOAT
        type: DT_VARIANT
        type: DT_VARIANT
        type: DT_VARIANT
        type: DT_VARIANT
        type: DT_VARIANT
        type: DT_VARIANT
        type: DT_VARIANT
      }
    }
  }
  attr {
    key: "_lower_using_switch_merge"
    value {
      b: true
    }
  }
  attr {
    key: "_read_only_resource_inputs"
    value {
      list {
        i: 1
        i: 2
        i: 3
        i: 4
      }
    }
  }
  attr {
    key: "else_branch"
    value {
      func {
        name: "batch_normalization_1_cond_false_1220"
      }
    }
  }
  attr {
    key: "output_shapes"
    value {
      list {
        shape {
          dim {
            size: 256
          }
          dim {
            size: 98
          }
          dim {
            size: 1
          }
          dim {
            size: 64
          }
        }
        shape {
          dim {
            size: 64
          }
        }
        shape {
          dim {
            size: 64
          }
        }
        shape {
        }
        shape {
        }
        shape {
        }
        shape {
        }
        shape {
        }
        shape {
        }
        shape {
        }
      }
    }
  }
  attr {
    key: "then_branch"
    value {
      func {
        name: "batch_normalization_1_cond_true_1219"
      }
    }
  }
}
node {
  name: "batch_normalization_1/cond/Identity"
  op: "Identity"
  input: "batch_normalization_1/cond"
  attr {
    key: "T"
    value {
      type: DT_FLOAT
    }
  }
}
node {
  name: "batch_normalization_1/cond/Identity_1"
  op: "Identity"
  input: "batch_normalization_1/cond:1"
  attr {
    key: "T"
    value {
      type: DT_FLOAT
    }
  }
}
node {
  name: "batch_normalization_1/cond/Identity_2"
  op: "Identity"
  input: "batch_normalization_1/cond:2"
  attr {
    key: "T"
    value {
      type: DT_FLOAT
    }
  }
}
node {
  name: "batch_normalization_1/cond/Identity_3"
  op: "Identity"
  input: "batch_normalization_1/cond:3"
  attr {
    key: "T"
    value {
      type: DT_VARIANT
    }
  }
}
node {
  name: "batch_normalization_1/cond/Identity_4"
  op: "Identity"
  input: "batch_normalization_1/cond:4"
  attr {
    key: "T"
    value {
      type: DT_VARIANT
    }
  }
}
node {
  name: "batch_normalization_1/cond/Identity_5"
  op: "Identity"
  input: "batch_normalization_1/cond:5"
  attr {
    key: "T"
    value {
      type: DT_VARIANT
    }
  }
}
node {
  name: "batch_normalization_1/cond/Identity_6"
  op: "Identity"
  input: "batch_normalization_1/cond:6"
  attr {
    key: "T"
    value {
      type: DT_VARIANT
    }
  }
}
node {
  name: "batch_normalization_1/cond/Identity_7"
  op: "Identity"
  input: "batch_normalization_1/cond:7"
  attr {
    key: "T"
    value {
      type: DT_VARIANT
    }
  }
}
node {
  name: "batch_normalization_1/cond/Identity_8"
  op: "Identity"
  input: "batch_normalization_1/cond:8"
  attr {
    key: "T"
    value {
      type: DT_VARIANT
    }
  }
}
node {
  name: "batch_normalization_1/cond/Identity_9"
  op: "Identity"
  input: "batch_normalization_1/cond:9"
  attr {
    key: "T"
    value {
      type: DT_VARIANT
    }
  }
}
node {
  name: "batch_normalization_1/cond_1"
  op: "StatelessIf"
  input: "keras_learning_phase"
  attr {
    key: "Tcond"
    value {
      type: DT_BOOL
    }
  }
  attr {
    key: "Tin"
    value {
      list {
      }
    }
  }
  attr {
    key: "Tout"
    value {
      list {
        type: DT_FLOAT
      }
    }
  }
  attr {
    key: "_lower_using_switch_merge"
    value {
      b: true
    }
  }
  attr {
    key: "_read_only_resource_inputs"
    value {
      list {
      }
    }
  }
  attr {
    key: "else_branch"
    value {
      func {
        name: "batch_normalization_1_cond_1_false_1288"
      }
    }
  }
  attr {
    key: "output_shapes"
    value {
      list {
        shape {
        }
      }
    }
  }
  attr {
    key: "then_branch"
    value {
      func {
        name: "batch_normalization_1_cond_1_true_1287"
      }
    }
  }
}
node {
  name: "batch_normalization_1/cond_1/Identity"
  op: "Identity"
  input: "batch_normalization_1/cond_1"
  attr {
    key: "T"
    value {
      type: DT_FLOAT
    }
  }
}
node {
  name: "batch_normalization_1/AssignMovingAvg/sub/x"
  op: "Const"
  attr {
    key: "_class"
    value {
      list {
        s: "loc:@batch_normalization_1/moving_mean"
      }
    }
  }
  attr {
    key: "dtype"
    value {
      type: DT_FLOAT
    }
  }
  attr {
    key: "value"
    value {
      tensor {
        dtype: DT_FLOAT
        tensor_shape {
        }
        float_val: 1.0
      }
    }
  }
}
node {
  name: "batch_normalization_1/AssignMovingAvg/sub"
  op: "Sub"
  input: "batch_normalization_1/AssignMovingAvg/sub/x"
  input: "batch_normalization_1/cond_1/Identity"
  attr {
    key: "T"
    value {
      type: DT_FLOAT
    }
  }
  attr {
    key: "_class"
    value {
      list {
        s: "loc:@batch_normalization_1/moving_mean"
      }
    }
  }
}
node {
  name: "batch_normalization_1/AssignMovingAvg/ReadVariableOp"
  op: "ReadVariableOp"
  input: "batch_normalization_1/moving_mean"
  attr {
    key: "dtype"
    value {
      type: DT_FLOAT
    }
  }
}
node {
  name: "batch_normalization_1/AssignMovingAvg/sub_1"
  op: "Sub"
  input: "batch_normalization_1/AssignMovingAvg/ReadVariableOp"
  input: "batch_normalization_1/cond/Identity_1"
  attr {
    key: "T"
    value {
      type: DT_FLOAT
    }
  }
  attr {
    key: "_class"
    value {
      list {
        s: "loc:@batch_normalization_1/moving_mean"
      }
    }
  }
}
node {
  name: "batch_normalization_1/AssignMovingAvg/mul"
  op: "Mul"
  input: "batch_normalization_1/AssignMovingAvg/sub_1"
  input: "batch_normalization_1/AssignMovingAvg/sub"
  attr {
    key: "T"
    value {
      type: DT_FLOAT
    }
  }
  attr {
    key: "_class"
    value {
      list {
        s: "loc:@batch_normalization_1/moving_mean"
      }
    }
  }
}
node {
  name: "batch_normalization_1/AssignMovingAvg/AssignSubVariableOp"
  op: "AssignSubVariableOp"
  input: "batch_normalization_1/moving_mean"
  input: "batch_normalization_1/AssignMovingAvg/mul"
  attr {
    key: "_class"
    value {
      list {
        s: "loc:@batch_normalization_1/moving_mean"
      }
    }
  }
  attr {
    key: "dtype"
    value {
      type: DT_FLOAT
    }
  }
}
node {
  name: "batch_normalization_1/AssignMovingAvg/ReadVariableOp_1"
  op: "ReadVariableOp"
  input: "batch_normalization_1/moving_mean"
  input: "^batch_normalization_1/AssignMovingAvg/AssignSubVariableOp"
  attr {
    key: "_class"
    value {
      list {
        s: "loc:@batch_normalization_1/moving_mean"
      }
    }
  }
  attr {
    key: "dtype"
    value {
      type: DT_FLOAT
    }
  }
}
node {
  name: "batch_normalization_1/AssignMovingAvg_1/sub/x"
  op: "Const"
  attr {
    key: "_class"
    value {
      list {
        s: "loc:@batch_normalization_1/moving_variance"
      }
    }
  }
  attr {
    key: "dtype"
    value {
      type: DT_FLOAT
    }
  }
  attr {
    key: "value"
    value {
      tensor {
        dtype: DT_FLOAT
        tensor_shape {
        }
        float_val: 1.0
      }
    }
  }
}
node {
  name: "batch_normalization_1/AssignMovingAvg_1/sub"
  op: "Sub"
  input: "batch_normalization_1/AssignMovingAvg_1/sub/x"
  input: "batch_normalization_1/cond_1/Identity"
  attr {
    key: "T"
    value {
      type: DT_FLOAT
    }
  }
  attr {
    key: "_class"
    value {
      list {
        s: "loc:@batch_normalization_1/moving_variance"
      }
    }
  }
}
node {
  name: "batch_normalization_1/AssignMovingAvg_1/ReadVariableOp"
  op: "ReadVariableOp"
  input: "batch_normalization_1/moving_variance"
  attr {
    key: "dtype"
    value {
      type: DT_FLOAT
    }
  }
}
node {
  name: "batch_normalization_1/AssignMovingAvg_1/sub_1"
  op: "Sub"
  input: "batch_normalization_1/AssignMovingAvg_1/ReadVariableOp"
  input: "batch_normalization_1/cond/Identity_2"
  attr {
    key: "T"
    value {
      type: DT_FLOAT
    }
  }
  attr {
    key: "_class"
    value {
      list {
        s: "loc:@batch_normalization_1/moving_variance"
      }
    }
  }
}
node {
  name: "batch_normalization_1/AssignMovingAvg_1/mul"
  op: "Mul"
  input: "batch_normalization_1/AssignMovingAvg_1/sub_1"
  input: "batch_normalization_1/AssignMovingAvg_1/sub"
  attr {
    key: "T"
    value {
      type: DT_FLOAT
    }
  }
  attr {
    key: "_class"
    value {
      list {
        s: "loc:@batch_normalization_1/moving_variance"
      }
    }
  }
}
node {
  name: "batch_normalization_1/AssignMovingAvg_1/AssignSubVariableOp"
  op: "AssignSubVariableOp"
  input: "batch_normalization_1/moving_variance"
  input: "batch_normalization_1/AssignMovingAvg_1/mul"
  attr {
    key: "_class"
    value {
      list {
        s: "loc:@batch_normalization_1/moving_variance"
      }
    }
  }
  attr {
    key: "dtype"
    value {
      type: DT_FLOAT
    }
  }
}
node {
  name: "batch_normalization_1/AssignMovingAvg_1/ReadVariableOp_1"
  op: "ReadVariableOp"
  input: "batch_normalization_1/moving_variance"
  input: "^batch_normalization_1/AssignMovingAvg_1/AssignSubVariableOp"
  attr {
    key: "_class"
    value {
      list {
        s: "loc:@batch_normalization_1/moving_variance"
      }
    }
  }
  attr {
    key: "dtype"
    value {
      type: DT_FLOAT
    }
  }
}
node {
  name: "conv2d_2/kernel/Initializer/random_uniform/shape"
  op: "Const"
  attr {
    key: "_class"
    value {
      list {
        s: "loc:@conv2d_2/kernel"
      }
    }
  }
  attr {
    key: "dtype"
    value {
      type: DT_INT32
    }
  }
  attr {
    key: "value"
    value {
      tensor {
        dtype: DT_INT32
        tensor_shape {
          dim {
            size: 4
          }
        }
        tensor_content: "\001\000\000\000\001\000\000\000\200\000\000\000@\000\000\000"
      }
    }
  }
}
node {
  name: "conv2d_2/kernel/Initializer/random_uniform/min"
  op: "Const"
  attr {
    key: "_class"
    value {
      list {
        s: "loc:@conv2d_2/kernel"
      }
    }
  }
  attr {
    key: "dtype"
    value {
      type: DT_FLOAT
    }
  }
  attr {
    key: "value"
    value {
      tensor {
        dtype: DT_FLOAT
        tensor_shape {
        }
        float_val: -0.1767766922712326
      }
    }
  }
}
node {
  name: "conv2d_2/kernel/Initializer/random_uniform/max"
  op: "Const"
  attr {
    key: "_class"
    value {
      list {
        s: "loc:@conv2d_2/kernel"
      }
    }
  }
  attr {
    key: "dtype"
    value {
      type: DT_FLOAT
    }
  }
  attr {
    key: "value"
    value {
      tensor {
        dtype: DT_FLOAT
        tensor_shape {
        }
        float_val: 0.1767766922712326
      }
    }
  }
}
node {
  name: "conv2d_2/kernel/Initializer/random_uniform/RandomUniform"
  op: "RandomUniform"
  input: "conv2d_2/kernel/Initializer/random_uniform/shape"
  attr {
    key: "T"
    value {
      type: DT_INT32
    }
  }
  attr {
    key: "_class"
    value {
      list {
        s: "loc:@conv2d_2/kernel"
      }
    }
  }
  attr {
    key: "dtype"
    value {
      type: DT_FLOAT
    }
  }
  attr {
    key: "seed"
    value {
      i: 0
    }
  }
  attr {
    key: "seed2"
    value {
      i: 0
    }
  }
}
node {
  name: "conv2d_2/kernel/Initializer/random_uniform/sub"
  op: "Sub"
  input: "conv2d_2/kernel/Initializer/random_uniform/max"
  input: "conv2d_2/kernel/Initializer/random_uniform/min"
  attr {
    key: "T"
    value {
      type: DT_FLOAT
    }
  }
  attr {
    key: "_class"
    value {
      list {
        s: "loc:@conv2d_2/kernel"
      }
    }
  }
}
node {
  name: "conv2d_2/kernel/Initializer/random_uniform/mul"
  op: "Mul"
  input: "conv2d_2/kernel/Initializer/random_uniform/RandomUniform"
  input: "conv2d_2/kernel/Initializer/random_uniform/sub"
  attr {
    key: "T"
    value {
      type: DT_FLOAT
    }
  }
  attr {
    key: "_class"
    value {
      list {
        s: "loc:@conv2d_2/kernel"
      }
    }
  }
}
node {
  name: "conv2d_2/kernel/Initializer/random_uniform"
  op: "Add"
  input: "conv2d_2/kernel/Initializer/random_uniform/mul"
  input: "conv2d_2/kernel/Initializer/random_uniform/min"
  attr {
    key: "T"
    value {
      type: DT_FLOAT
    }
  }
  attr {
    key: "_class"
    value {
      list {
        s: "loc:@conv2d_2/kernel"
      }
    }
  }
}
node {
  name: "conv2d_2/kernel"
  op: "VarHandleOp"
  attr {
    key: "_class"
    value {
      list {
        s: "loc:@conv2d_2/kernel"
      }
    }
  }
  attr {
    key: "allowed_devices"
    value {
      list {
      }
    }
  }
  attr {
    key: "container"
    value {
      s: ""
    }
  }
  attr {
    key: "dtype"
    value {
      type: DT_FLOAT
    }
  }
  attr {
    key: "shape"
    value {
      shape {
        dim {
          size: 1
        }
        dim {
          size: 1
        }
        dim {
          size: 128
        }
        dim {
          size: 64
        }
      }
    }
  }
  attr {
    key: "shared_name"
    value {
      s: "conv2d_2/kernel"
    }
  }
}
node {
  name: "conv2d_2/kernel/IsInitialized/VarIsInitializedOp"
  op: "VarIsInitializedOp"
  input: "conv2d_2/kernel"
}
node {
  name: "conv2d_2/kernel/Assign"
  op: "AssignVariableOp"
  input: "conv2d_2/kernel"
  input: "conv2d_2/kernel/Initializer/random_uniform"
  attr {
    key: "dtype"
    value {
      type: DT_FLOAT
    }
  }
}
node {
  name: "conv2d_2/kernel/Read/ReadVariableOp"
  op: "ReadVariableOp"
  input: "conv2d_2/kernel"
  attr {
    key: "dtype"
    value {
      type: DT_FLOAT
    }
  }
}
node {
  name: "conv2d_2/Conv2D/ReadVariableOp"
  op: "ReadVariableOp"
  input: "conv2d_2/kernel"
  attr {
    key: "dtype"
    value {
      type: DT_FLOAT
    }
  }
}
node {
  name: "conv2d_2/Conv2D"
  op: "Conv2D"
  input: "dropout/cond/Identity"
  input: "conv2d_2/Conv2D/ReadVariableOp"
  attr {
    key: "T"
    value {
      type: DT_FLOAT
    }
  }
  attr {
    key: "data_format"
    value {
      s: "NHWC"
    }
  }
  attr {
    key: "dilations"
    value {
      list {
        i: 1
        i: 1
        i: 1
        i: 1
      }
    }
  }
  attr {
    key: "explicit_paddings"
    value {
      list {
      }
    }
  }
  attr {
    key: "padding"
    value {
      s: "VALID"
    }
  }
  attr {
    key: "strides"
    value {
      list {
        i: 1
        i: 1
        i: 1
        i: 1
      }
    }
  }
  attr {
    key: "use_cudnn_on_gpu"
    value {
      b: true
    }
  }
}
node {
  name: "batch_normalization_2/gamma/Initializer/ones"
  op: "Const"
  attr {
    key: "_class"
    value {
      list {
        s: "loc:@batch_normalization_2/gamma"
      }
    }
  }
  attr {
    key: "dtype"
    value {
      type: DT_FLOAT
    }
  }
  attr {
    key: "value"
    value {
      tensor {
        dtype: DT_FLOAT
        tensor_shape {
          dim {
            size: 64
          }
        }
        float_val: 1.0
      }
    }
  }
}
node {
  name: "batch_normalization_2/gamma"
  op: "VarHandleOp"
  attr {
    key: "_class"
    value {
      list {
        s: "loc:@batch_normalization_2/gamma"
      }
    }
  }
  attr {
    key: "allowed_devices"
    value {
      list {
      }
    }
  }
  attr {
    key: "container"
    value {
      s: ""
    }
  }
  attr {
    key: "dtype"
    value {
      type: DT_FLOAT
    }
  }
  attr {
    key: "shape"
    value {
      shape {
        dim {
          size: 64
        }
      }
    }
  }
  attr {
    key: "shared_name"
    value {
      s: "batch_normalization_2/gamma"
    }
  }
}
node {
  name: "batch_normalization_2/gamma/IsInitialized/VarIsInitializedOp"
  op: "VarIsInitializedOp"
  input: "batch_normalization_2/gamma"
}
node {
  name: "batch_normalization_2/gamma/Assign"
  op: "AssignVariableOp"
  input: "batch_normalization_2/gamma"
  input: "batch_normalization_2/gamma/Initializer/ones"
  attr {
    key: "dtype"
    value {
      type: DT_FLOAT
    }
  }
}
node {
  name: "batch_normalization_2/gamma/Read/ReadVariableOp"
  op: "ReadVariableOp"
  input: "batch_normalization_2/gamma"
  attr {
    key: "dtype"
    value {
      type: DT_FLOAT
    }
  }
}
node {
  name: "batch_normalization_2/beta/Initializer/zeros"
  op: "Const"
  attr {
    key: "_class"
    value {
      list {
        s: "loc:@batch_normalization_2/beta"
      }
    }
  }
  attr {
    key: "dtype"
    value {
      type: DT_FLOAT
    }
  }
  attr {
    key: "value"
    value {
      tensor {
        dtype: DT_FLOAT
        tensor_shape {
          dim {
            size: 64
          }
        }
        float_val: 0.0
      }
    }
  }
}
node {
  name: "batch_normalization_2/beta"
  op: "VarHandleOp"
  attr {
    key: "_class"
    value {
      list {
        s: "loc:@batch_normalization_2/beta"
      }
    }
  }
  attr {
    key: "allowed_devices"
    value {
      list {
      }
    }
  }
  attr {
    key: "container"
    value {
      s: ""
    }
  }
  attr {
    key: "dtype"
    value {
      type: DT_FLOAT
    }
  }
  attr {
    key: "shape"
    value {
      shape {
        dim {
          size: 64
        }
      }
    }
  }
  attr {
    key: "shared_name"
    value {
      s: "batch_normalization_2/beta"
    }
  }
}
node {
  name: "batch_normalization_2/beta/IsInitialized/VarIsInitializedOp"
  op: "VarIsInitializedOp"
  input: "batch_normalization_2/beta"
}
node {
  name: "batch_normalization_2/beta/Assign"
  op: "AssignVariableOp"
  input: "batch_normalization_2/beta"
  input: "batch_normalization_2/beta/Initializer/zeros"
  attr {
    key: "dtype"
    value {
      type: DT_FLOAT
    }
  }
}
node {
  name: "batch_normalization_2/beta/Read/ReadVariableOp"
  op: "ReadVariableOp"
  input: "batch_normalization_2/beta"
  attr {
    key: "dtype"
    value {
      type: DT_FLOAT
    }
  }
}
node {
  name: "batch_normalization_2/moving_mean/Initializer/zeros"
  op: "Const"
  attr {
    key: "_class"
    value {
      list {
        s: "loc:@batch_normalization_2/moving_mean"
      }
    }
  }
  attr {
    key: "dtype"
    value {
      type: DT_FLOAT
    }
  }
  attr {
    key: "value"
    value {
      tensor {
        dtype: DT_FLOAT
        tensor_shape {
          dim {
            size: 64
          }
        }
        float_val: 0.0
      }
    }
  }
}
node {
  name: "batch_normalization_2/moving_mean"
  op: "VarHandleOp"
  attr {
    key: "_class"
    value {
      list {
        s: "loc:@batch_normalization_2/moving_mean"
      }
    }
  }
  attr {
    key: "allowed_devices"
    value {
      list {
      }
    }
  }
  attr {
    key: "container"
    value {
      s: ""
    }
  }
  attr {
    key: "dtype"
    value {
      type: DT_FLOAT
    }
  }
  attr {
    key: "shape"
    value {
      shape {
        dim {
          size: 64
        }
      }
    }
  }
  attr {
    key: "shared_name"
    value {
      s: "batch_normalization_2/moving_mean"
    }
  }
}
node {
  name: "batch_normalization_2/moving_mean/IsInitialized/VarIsInitializedOp"
  op: "VarIsInitializedOp"
  input: "batch_normalization_2/moving_mean"
}
node {
  name: "batch_normalization_2/moving_mean/Assign"
  op: "AssignVariableOp"
  input: "batch_normalization_2/moving_mean"
  input: "batch_normalization_2/moving_mean/Initializer/zeros"
  attr {
    key: "dtype"
    value {
      type: DT_FLOAT
    }
  }
}
node {
  name: "batch_normalization_2/moving_mean/Read/ReadVariableOp"
  op: "ReadVariableOp"
  input: "batch_normalization_2/moving_mean"
  attr {
    key: "dtype"
    value {
      type: DT_FLOAT
    }
  }
}
node {
  name: "batch_normalization_2/moving_variance/Initializer/ones"
  op: "Const"
  attr {
    key: "_class"
    value {
      list {
        s: "loc:@batch_normalization_2/moving_variance"
      }
    }
  }
  attr {
    key: "dtype"
    value {
      type: DT_FLOAT
    }
  }
  attr {
    key: "value"
    value {
      tensor {
        dtype: DT_FLOAT
        tensor_shape {
          dim {
            size: 64
          }
        }
        float_val: 1.0
      }
    }
  }
}
node {
  name: "batch_normalization_2/moving_variance"
  op: "VarHandleOp"
  attr {
    key: "_class"
    value {
      list {
        s: "loc:@batch_normalization_2/moving_variance"
      }
    }
  }
  attr {
    key: "allowed_devices"
    value {
      list {
      }
    }
  }
  attr {
    key: "container"
    value {
      s: ""
    }
  }
  attr {
    key: "dtype"
    value {
      type: DT_FLOAT
    }
  }
  attr {
    key: "shape"
    value {
      shape {
        dim {
          size: 64
        }
      }
    }
  }
  attr {
    key: "shared_name"
    value {
      s: "batch_normalization_2/moving_variance"
    }
  }
}
node {
  name: "batch_normalization_2/moving_variance/IsInitialized/VarIsInitializedOp"
  op: "VarIsInitializedOp"
  input: "batch_normalization_2/moving_variance"
}
node {
  name: "batch_normalization_2/moving_variance/Assign"
  op: "AssignVariableOp"
  input: "batch_normalization_2/moving_variance"
  input: "batch_normalization_2/moving_variance/Initializer/ones"
  attr {
    key: "dtype"
    value {
      type: DT_FLOAT
    }
  }
}
node {
  name: "batch_normalization_2/moving_variance/Read/ReadVariableOp"
  op: "ReadVariableOp"
  input: "batch_normalization_2/moving_variance"
  attr {
    key: "dtype"
    value {
      type: DT_FLOAT
    }
  }
}
node {
  name: "batch_normalization_2/cond"
  op: "If"
  input: "keras_learning_phase"
  input: "batch_normalization_2/gamma"
  input: "batch_normalization_2/beta"
  input: "batch_normalization_2/moving_mean"
  input: "batch_normalization_2/moving_variance"
  input: "conv2d_2/Conv2D"
  attr {
    key: "Tcond"
    value {
      type: DT_BOOL
    }
  }
  attr {
    key: "Tin"
    value {
      list {
        type: DT_RESOURCE
        type: DT_RESOURCE
        type: DT_RESOURCE
        type: DT_RESOURCE
        type: DT_FLOAT
      }
    }
  }
  attr {
    key: "Tout"
    value {
      list {
        type: DT_FLOAT
        type: DT_FLOAT
        type: DT_FLOAT
        type: DT_VARIANT
        type: DT_VARIANT
        type: DT_VARIANT
        type: DT_VARIANT
        type: DT_VARIANT
        type: DT_VARIANT
        type: DT_VARIANT
      }
    }
  }
  attr {
    key: "_lower_using_switch_merge"
    value {
      b: true
    }
  }
  attr {
    key: "_read_only_resource_inputs"
    value {
      list {
        i: 1
        i: 2
        i: 3
        i: 4
      }
    }
  }
  attr {
    key: "else_branch"
    value {
      func {
        name: "batch_normalization_2_cond_false_1336"
      }
    }
  }
  attr {
    key: "output_shapes"
    value {
      list {
        shape {
          dim {
            size: 256
          }
          dim {
            size: 98
          }
          dim {
            size: 1
          }
          dim {
            size: 64
          }
        }
        shape {
          dim {
            size: 64
          }
        }
        shape {
          dim {
            size: 64
          }
        }
        shape {
        }
        shape {
        }
        shape {
        }
        shape {
        }
        shape {
        }
        shape {
        }
        shape {
        }
      }
    }
  }
  attr {
    key: "then_branch"
    value {
      func {
        name: "batch_normalization_2_cond_true_1335"
      }
    }
  }
}
node {
  name: "batch_normalization_2/cond/Identity"
  op: "Identity"
  input: "batch_normalization_2/cond"
  attr {
    key: "T"
    value {
      type: DT_FLOAT
    }
  }
}
node {
  name: "batch_normalization_2/cond/Identity_1"
  op: "Identity"
  input: "batch_normalization_2/cond:1"
  attr {
    key: "T"
    value {
      type: DT_FLOAT
    }
  }
}
node {
  name: "batch_normalization_2/cond/Identity_2"
  op: "Identity"
  input: "batch_normalization_2/cond:2"
  attr {
    key: "T"
    value {
      type: DT_FLOAT
    }
  }
}
node {
  name: "batch_normalization_2/cond/Identity_3"
  op: "Identity"
  input: "batch_normalization_2/cond:3"
  attr {
    key: "T"
    value {
      type: DT_VARIANT
    }
  }
}
node {
  name: "batch_normalization_2/cond/Identity_4"
  op: "Identity"
  input: "batch_normalization_2/cond:4"
  attr {
    key: "T"
    value {
      type: DT_VARIANT
    }
  }
}
node {
  name: "batch_normalization_2/cond/Identity_5"
  op: "Identity"
  input: "batch_normalization_2/cond:5"
  attr {
    key: "T"
    value {
      type: DT_VARIANT
    }
  }
}
node {
  name: "batch_normalization_2/cond/Identity_6"
  op: "Identity"
  input: "batch_normalization_2/cond:6"
  attr {
    key: "T"
    value {
      type: DT_VARIANT
    }
  }
}
node {
…
      }
      experimental_debug_info {
        original_node_names: "FusedBatchNormV3/ReadVariableOp"
      }
    }
    node_def {
      name: "FusedBatchNormV3/ReadVariableOp_1"
      op: "ReadVariableOp"
      input: "fusedbatchnormv3_readvariableop_1_batch_normalization_moving_variance"
      attr {
        key: "dtype"
        value {
          type: DT_FLOAT
        }
      }
      experimental_debug_info {
        original_node_names: "FusedBatchNormV3/ReadVariableOp_1"
      }
    }
    node_def {
      name: "FusedBatchNormV3"
      op: "FusedBatchNormV3"
      input: "fusedbatchnormv3_conv2d_conv2d"
      input: "ReadVariableOp:value:0"
      input: "ReadVariableOp_1:value:0"
      input: "FusedBatchNormV3/ReadVariableOp:value:0"
      input: "FusedBatchNormV3/ReadVariableOp_1:value:0"
      attr {
        key: "T"
        value {
          type: DT_FLOAT
        }
      }
      attr {
        key: "U"
        value {
          type: DT_FLOAT
        }
      }
      attr {
        key: "data_format"
        value {
          s: "NHWC"
        }
      }
      attr {
        key: "epsilon"
        value {
          f: 0.0010000000474974513
        }
      }
      attr {
        key: "exponential_avg_factor"
        value {
          f: 1.0
        }
      }
      attr {
        key: "is_training"
        value {
          b: false
        }
      }
      experimental_debug_info {
        original_node_names: "FusedBatchNormV3"
      }
    }
    node_def {
      name: "OptionalFromValue"
      op: "OptionalFromValue"
      input: "ReadVariableOp:value:0"
      attr {
        key: "Toutput_types"
        value {
          list {
            type: DT_FLOAT
          }
        }
      }
      experimental_debug_info {
        original_node_names: "OptionalFromValue"
      }
    }
    node_def {
      name: "OptionalFromValue_1"
      op: "OptionalFromValue"
      input: "ReadVariableOp_1:value:0"
      attr {
        key: "Toutput_types"
        value {
          list {
            type: DT_FLOAT
          }
        }
      }
      experimental_debug_info {
        original_node_names: "OptionalFromValue_1"
      }
    }
    node_def {
      name: "OptionalFromValue_2"
      op: "OptionalFromValue"
      input: "FusedBatchNormV3/ReadVariableOp:value:0"
      attr {
        key: "Toutput_types"
        value {
          list {
            type: DT_FLOAT
          }
        }
      }
      experimental_debug_info {
        original_node_names: "OptionalFromValue_2"
      }
    }
    node_def {
      name: "OptionalFromValue_3"
      op: "OptionalFromValue"
      input: "FusedBatchNormV3/ReadVariableOp_1:value:0"
      attr {
        key: "Toutput_types"
        value {
          list {
            type: DT_FLOAT
          }
        }
      }
      experimental_debug_info {
        original_node_names: "OptionalFromValue_3"
      }
    }
    node_def {
      name: "OptionalFromValue_4"
      op: "OptionalFromValue"
      input: "FusedBatchNormV3:reserve_space_1:0"
      attr {
        key: "Toutput_types"
        value {
          list {
            type: DT_FLOAT
          }
        }
      }
      experimental_debug_info {
        original_node_names: "OptionalFromValue_4"
      }
    }
    node_def {
      name: "OptionalFromValue_5"
      op: "OptionalFromValue"
      input: "FusedBatchNormV3:reserve_space_2:0"
      attr {
        key: "Toutput_types"
        value {
          list {
            type: DT_FLOAT
          }
        }
      }
      experimental_debug_info {
        original_node_names: "OptionalFromValue_5"
      }
    }
    node_def {
      name: "OptionalFromValue_6"
      op: "OptionalFromValue"
      input: "FusedBatchNormV3:reserve_space_3:0"
      attr {
        key: "Toutput_types"
        value {
          list {
            type: DT_FLOAT
          }
        }
      }
      experimental_debug_info {
        original_node_names: "OptionalFromValue_6"
      }
    }
    ret {
      key: "fusedbatchnormv3"
      value: "FusedBatchNormV3:y:0"
    }
    ret {
      key: "fusedbatchnormv3_0"
      value: "FusedBatchNormV3:batch_mean:0"
    }
    ret {
      key: "fusedbatchnormv3_1"
      value: "FusedBatchNormV3:batch_variance:0"
    }
    ret {
      key: "optionalfromvalue"
      value: "OptionalFromValue:optional:0"
    }
    ret {
      key: "optionalfromvalue_1"
      value: "OptionalFromValue_1:optional:0"
    }
    ret {
      key: "optionalfromvalue_2"
      value: "OptionalFromValue_2:optional:0"
    }
    ret {
      key: "optionalfromvalue_3"
      value: "OptionalFromValue_3:optional:0"
    }
    ret {
      key: "optionalfromvalue_4"
      value: "OptionalFromValue_4:optional:0"
    }
    ret {
      key: "optionalfromvalue_5"
      value: "OptionalFromValue_5:optional:0"
    }
    ret {
      key: "optionalfromvalue_6"
      value: "OptionalFromValue_6:optional:0"
    }
    arg_attr {
      key: 4
      value {
        attr {
          key: "_output_shapes"
          value {
            list {
              shape {
                dim {
                  size: 256
                }
                dim {
                  size: 98
                }
                dim {
                  size: 1
                }
                dim {
                  size: 128
                }
              }
            }
          }
        }
      }
    }
  }
  function {
    signature {
      name: "batch_normalization_4_cond_true_1630"
      input_arg {
        name: "readvariableop_batch_normalization_4_gamma"
        type: DT_RESOURCE
      }
      input_arg {
        name: "readvariableop_1_batch_normalization_4_beta"
        type: DT_RESOURCE
      }
      input_arg {
        name: "fusedbatchnormv3_readvariableop_batch_normalization_4_moving_mean"
        type: DT_RESOURCE
      }
      input_arg {
        name: "fusedbatchnormv3_readvariableop_1_batch_normalization_4_moving_variance"
        type: DT_RESOURCE
      }
      input_arg {
        name: "fusedbatchnormv3_conv2d_4_conv2d"
        type: DT_FLOAT
      }
      output_arg {
        name: "fusedbatchnormv3"
        type: DT_FLOAT
      }
      output_arg {
        name: "fusedbatchnormv3_0"
        type: DT_FLOAT
      }
      output_arg {
        name: "fusedbatchnormv3_1"
        type: DT_FLOAT
      }
      output_arg {
        name: "optionalfromvalue"
        type: DT_VARIANT
      }
      output_arg {
        name: "optionalfromvalue_1"
        type: DT_VARIANT
      }
      output_arg {
        name: "optionalfromvalue_2"
        type: DT_VARIANT
      }
      output_arg {
        name: "optionalfromvalue_3"
        type: DT_VARIANT
      }
      output_arg {
        name: "optionalfromvalue_4"
        type: DT_VARIANT
      }
      output_arg {
        name: "optionalfromvalue_5"
        type: DT_VARIANT
      }
      output_arg {
        name: "optionalfromvalue_6"
        type: DT_VARIANT
      }
      is_stateful: true
    }
    node_def {
      name: "ReadVariableOp"
      op: "ReadVariableOp"
      input: "readvariableop_batch_normalization_4_gamma"
      attr {
        key: "dtype"
        value {
          type: DT_FLOAT
        }
      }
      experimental_debug_info {
        original_node_names: "ReadVariableOp"
      }
    }
    node_def {
      name: "ReadVariableOp_1"
      op: "ReadVariableOp"
      input: "readvariableop_1_batch_normalization_4_beta"
      attr {
        key: "dtype"
        value {
          type: DT_FLOAT
        }
      }
      experimental_debug_info {
        original_node_names: "ReadVariableOp_1"
      }
    }
    node_def {
      name: "FusedBatchNormV3/ReadVariableOp"
      op: "ReadVariableOp"
      input: "fusedbatchnormv3_readvariableop_batch_normalization_4_moving_mean"
      attr {
        key: "dtype"
        value {
          type: DT_FLOAT
        }
      }
      experimental_debug_info {
        original_node_names: "FusedBatchNormV3/ReadVariableOp"
      }
    }
    node_def {
      name: "FusedBatchNormV3/ReadVariableOp_1"
      op: "ReadVariableOp"
      input: "fusedbatchnormv3_readvariableop_1_batch_normalization_4_moving_variance"
      attr {
        key: "dtype"
        value {
          type: DT_FLOAT
        }
      }
      experimental_debug_info {
        original_node_names: "FusedBatchNormV3/ReadVariableOp_1"
      }
    }
    node_def {
      name: "FusedBatchNormV3"
      op: "FusedBatchNormV3"
      input: "fusedbatchnormv3_conv2d_4_conv2d"
      input: "ReadVariableOp:value:0"
      input: "ReadVariableOp_1:value:0"
      input: "FusedBatchNormV3/ReadVariableOp:value:0"
      input: "FusedBatchNormV3/ReadVariableOp_1:value:0"
      attr {
        key: "T"
        value {
          type: DT_FLOAT
        }
      }
      attr {
        key: "U"
        value {
          type: DT_FLOAT
        }
      }
      attr {
        key: "data_format"
        value {
          s: "NHWC"
        }
      }
      attr {
        key: "epsilon"
        value {
          f: 0.0010000000474974513
        }
      }
      attr {
        key: "exponential_avg_factor"
        value {
          f: 1.0
        }
      }
      attr {
        key: "is_training"
        value {
          b: true
        }
      }
      experimental_debug_info {
        original_node_names: "FusedBatchNormV3"
      }
    }
    node_def {
      name: "OptionalFromValue"
      op: "OptionalFromValue"
      input: "ReadVariableOp:value:0"
      attr {
        key: "Toutput_types"
        value {
          list {
            type: DT_FLOAT
          }
        }
      }
      experimental_debug_info {
        original_node_names: "OptionalFromValue"
      }
    }
    node_def {
      name: "OptionalFromValue_1"
      op: "OptionalFromValue"
      input: "ReadVariableOp_1:value:0"
      attr {
        key: "Toutput_types"
        value {
          list {
            type: DT_FLOAT
          }
        }
      }
      experimental_debug_info {
        original_node_names: "OptionalFromValue_1"
      }
    }
    node_def {
      name: "OptionalFromValue_2"
      op: "OptionalFromValue"
      input: "FusedBatchNormV3/ReadVariableOp:value:0"
      attr {
        key: "Toutput_types"
        value {
          list {
            type: DT_FLOAT
          }
        }
      }
      experimental_debug_info {
        original_node_names: "OptionalFromValue_2"
      }
    }
    node_def {
      name: "OptionalFromValue_3"
      op: "OptionalFromValue"
      input: "FusedBatchNormV3/ReadVariableOp_1:value:0"
      attr {
        key: "Toutput_types"
        value {
          list {
            type: DT_FLOAT
          }
        }
      }
      experimental_debug_info {
        original_node_names: "OptionalFromValue_3"
      }
    }
    node_def {
      name: "OptionalFromValue_4"
      op: "OptionalFromValue"
      input: "FusedBatchNormV3:reserve_space_1:0"
      attr {
        key: "Toutput_types"
        value {
          list {
            type: DT_FLOAT
          }
        }
      }
      experimental_debug_info {
        original_node_names: "OptionalFromValue_4"
      }
    }
    node_def {
      name: "OptionalFromValue_5"
      op: "OptionalFromValue"
      input: "FusedBatchNormV3:reserve_space_2:0"
      attr {
        key: "Toutput_types"
        value {
          list {
            type: DT_FLOAT
          }
        }
      }
      experimental_debug_info {
        original_node_names: "OptionalFromValue_5"
      }
    }
    node_def {
      name: "OptionalFromValue_6"
      op: "OptionalFromValue"
      input: "FusedBatchNormV3:reserve_space_3:0"
      attr {
        key: "Toutput_types"
        value {
          list {
            type: DT_FLOAT
          }
        }
      }
      experimental_debug_info {
        original_node_names: "OptionalFromValue_6"
      }
    }
    ret {
      key: "fusedbatchnormv3"
      value: "FusedBatchNormV3:y:0"
    }
    ret {
      key: "fusedbatchnormv3_0"
      value: "FusedBatchNormV3:batch_mean:0"
    }
    ret {
      key: "fusedbatchnormv3_1"
      value: "FusedBatchNormV3:batch_variance:0"
    }
    ret {
      key: "optionalfromvalue"
      value: "OptionalFromValue:optional:0"
    }
    ret {
      key: "optionalfromvalue_1"
      value: "OptionalFromValue_1:optional:0"
    }
    ret {
      key: "optionalfromvalue_2"
      value: "OptionalFromValue_2:optional:0"
    }
    ret {
      key: "optionalfromvalue_3"
      value: "OptionalFromValue_3:optional:0"
    }
    ret {
      key: "optionalfromvalue_4"
      value: "OptionalFromValue_4:optional:0"
    }
    ret {
      key: "optionalfromvalue_5"
      value: "OptionalFromValue_5:optional:0"
    }
    ret {
      key: "optionalfromvalue_6"
      value: "OptionalFromValue_6:optional:0"
    }
    arg_attr {
      key: 4
      value {
        attr {
          key: "_output_shapes"
          value {
            list {
              shape {
                dim {
                  size: 256
                }
                dim {
                  size: 98
                }
                dim {
                  size: 1
                }
                dim {
                  size: 64
                }
              }
            }
          }
        }
      }
    }
  }
  function {
    signature {
      name: "batch_normalization_5_cond_false_1810"
      input_arg {
        name: "readvariableop_batch_normalization_5_gamma"
        type: DT_RESOURCE
      }
      input_arg {
        name: "readvariableop_1_batch_normalization_5_beta"
        type: DT_RESOURCE
      }
      input_arg {
        name: "fusedbatchnormv3_readvariableop_batch_normalization_5_moving_mean"
        type: DT_RESOURCE
      }
      input_arg {
        name: "fusedbatchnormv3_readvariableop_1_batch_normalization_5_moving_variance"
        type: DT_RESOURCE
      }
      input_arg {
        name: "fusedbatchnormv3_conv2d_5_conv2d"
        type: DT_FLOAT
      }
      output_arg {
        name: "fusedbatchnormv3"
        type: DT_FLOAT
      }
      output_arg {
        name: "fusedbatchnormv3_0"
        type: DT_FLOAT
      }
      output_arg {
        name: "fusedbatchnormv3_1"
        type: DT_FLOAT
      }
      output_arg {
        name: "optionalfromvalue"
        type: DT_VARIANT
      }
      output_arg {
        name: "optionalfromvalue_1"
        type: DT_VARIANT
      }
      output_arg {
        name: "optionalfromvalue_2"
        type: DT_VARIANT
      }
      output_arg {
        name: "optionalfromvalue_3"
        type: DT_VARIANT
      }
      output_arg {
        name: "optionalfromvalue_4"
        type: DT_VARIANT
      }
      output_arg {
        name: "optionalfromvalue_5"
        type: DT_VARIANT
      }
      output_arg {
        name: "optionalfromvalue_6"
        type: DT_VARIANT
      }
      is_stateful: true
    }
    node_def {
      name: "ReadVariableOp"
      op: "ReadVariableOp"
      input: "readvariableop_batch_normalization_5_gamma"
      attr {
        key: "dtype"
        value {
          type: DT_FLOAT
        }
      }
      experimental_debug_info {
        original_node_names: "ReadVariableOp"
      }
    }
    node_def {
      name: "ReadVariableOp_1"
      op: "ReadVariableOp"
      input: "readvariableop_1_batch_normalization_5_beta"
      attr {
        key: "dtype"
        value {
          type: DT_FLOAT
        }
      }
      experimental_debug_info {
        original_node_names: "ReadVariableOp_1"
      }
    }
    node_def {
      name: "FusedBatchNormV3/ReadVariableOp"
      op: "ReadVariableOp"
      input: "fusedbatchnormv3_readvariableop_batch_normalization_5_moving_mean"
      attr {
        key: "dtype"
        value {
          type: DT_FLOAT
        }
      }
      experimental_debug_info {
        original_node_names: "FusedBatchNormV3/ReadVariableOp"
      }
    }
    node_def {
      name: "FusedBatchNormV3/ReadVariableOp_1"
      op: "ReadVariableOp"
      input: "fusedbatchnormv3_readvariableop_1_batch_normalization_5_moving_variance"
      attr {
        key: "dtype"
        value {
          type: DT_FLOAT
        }
      }
      experimental_debug_info {
        original_node_names: "FusedBatchNormV3/ReadVariableOp_1"
      }
    }
    node_def {
      name: "FusedBatchNormV3"
      op: "FusedBatchNormV3"
      input: "fusedbatchnormv3_conv2d_5_conv2d"
      input: "ReadVariableOp:value:0"
      input: "ReadVariableOp_1:value:0"
      input: "FusedBatchNormV3/ReadVariableOp:value:0"
      input: "FusedBatchNormV3/ReadVariableOp_1:value:0"
      attr {
        key: "T"
        value {
          type: DT_FLOAT
        }
      }
      attr {
        key: "U"
        value {
          type: DT_FLOAT
        }
      }
      attr {
        key: "data_format"
        value {
          s: "NHWC"
        }
      }
      attr {
        key: "epsilon"
        value {
          f: 0.0010000000474974513
        }
      }
      attr {
        key: "exponential_avg_factor"
        value {
          f: 1.0
        }
      }
      attr {
        key: "is_training"
        value {
          b: false
        }
      }
      experimental_debug_info {
        original_node_names: "FusedBatchNormV3"
      }
    }
    node_def {
      name: "OptionalFromValue"
      op: "OptionalFromValue"
      input: "ReadVariableOp:value:0"
      attr {
        key: "Toutput_types"
        value {
          list {
            type: DT_FLOAT
          }
        }
      }
      experimental_debug_info {
        original_node_names: "OptionalFromValue"
      }
    }
    node_def {
      name: "OptionalFromValue_1"
      op: "OptionalFromValue"
      input: "ReadVariableOp_1:value:0"
      attr {
        key: "Toutput_types"
        value {
          list {
            type: DT_FLOAT
          }
        }
      }
      experimental_debug_info {
        original_node_names: "OptionalFromValue_1"
      }
    }
    node_def {
      name: "OptionalFromValue_2"
      op: "OptionalFromValue"
      input: "FusedBatchNormV3/ReadVariableOp:value:0"
      attr {
        key: "Toutput_types"
        value {
          list {
            type: DT_FLOAT
          }
        }
      }
      experimental_debug_info {
        original_node_names: "OptionalFromValue_2"
      }
    }
    node_def {
      name: "OptionalFromValue_3"
      op: "OptionalFromValue"
      input: "FusedBatchNormV3/ReadVariableOp_1:value:0"
      attr {
        key: "Toutput_types"
        value {
          list {
            type: DT_FLOAT
          }
        }
      }
      experimental_debug_info {
        original_node_names: "OptionalFromValue_3"
      }
    }
    node_def {
      name: "OptionalFromValue_4"
      op: "OptionalFromValue"
      input: "FusedBatchNormV3:reserve_space_1:0"
      attr {
        key: "Toutput_types"
        value {
          list {
            type: DT_FLOAT
          }
        }
      }
      experimental_debug_info {
        original_node_names: "OptionalFromValue_4"
      }
    }
    node_def {
      name: "OptionalFromValue_5"
      op: "OptionalFromValue"
      input: "FusedBatchNormV3:reserve_space_2:0"
      attr {
        key: "Toutput_types"
        value {
          list {
            type: DT_FLOAT
          }
        }
      }
      experimental_debug_info {
        original_node_names: "OptionalFromValue_5"
      }
    }
    node_def {
      name: "OptionalFromValue_6"
      op: "OptionalFromValue"
      input: "FusedBatchNormV3:reserve_space_3:0"
      attr {
        key: "Toutput_types"
        value {
          list {
            type: DT_FLOAT
          }
        }
      }
      experimental_debug_info {
        original_node_names: "OptionalFromValue_6"
      }
    }
    ret {
      key: "fusedbatchnormv3"
      value: "FusedBatchNormV3:y:0"
    }
    ret {
      key: "fusedbatchnormv3_0"
      value: "FusedBatchNormV3:batch_mean:0"
    }
    ret {
      key: "fusedbatchnormv3_1"
      value: "FusedBatchNormV3:batch_variance:0"
    }
    ret {
      key: "optionalfromvalue"
      value: "OptionalFromValue:optional:0"
    }
    ret {
      key: "optionalfromvalue_1"
      value: "OptionalFromValue_1:optional:0"
    }
    ret {
      key: "optionalfromvalue_2"
      value: "OptionalFromValue_2:optional:0"
    }
    ret {
      key: "optionalfromvalue_3"
      value: "OptionalFromValue_3:optional:0"
    }
    ret {
      key: "optionalfromvalue_4"
      value: "OptionalFromValue_4:optional:0"
    }
    ret {
      key: "optionalfromvalue_5"
      value: "OptionalFromValue_5:optional:0"
    }
    ret {
      key: "optionalfromvalue_6"
      value: "OptionalFromValue_6:optional:0"
    }
    arg_attr {
      key: 4
      value {
        attr {
          key: "_output_shapes"
          value {
            list {
              shape {
                dim {
                  size: 256
                }
                dim {
                  size: 98
                }
                dim {
                  size: 1
                }
                dim {
                  size: 64
                }
              }
            }
          }
        }
      }
    }
  }
  function {
    signature {
      name: "batch_normalization_8_cond_false_2293"
      input_arg {
        name: "readvariableop_batch_normalization_8_gamma"
        type: DT_RESOURCE
      }
      input_arg {
        name: "readvariableop_1_batch_normalization_8_beta"
        type: DT_RESOURCE
      }
      input_arg {
        name: "fusedbatchnormv3_readvariableop_batch_normalization_8_moving_mean"
        type: DT_RESOURCE
      }
      input_arg {
        name: "fusedbatchnormv3_readvariableop_1_batch_normalization_8_moving_variance"
        type: DT_RESOURCE
      }
      input_arg {
        name: "fusedbatchnormv3_conv2d_8_conv2d"
        type: DT_FLOAT
      }
      output_arg {
        name: "fusedbatchnormv3"
        type: DT_FLOAT
      }
      output_arg {
        name: "fusedbatchnormv3_0"
        type: DT_FLOAT
      }
      output_arg {
        name: "fusedbatchnormv3_1"
        type: DT_FLOAT
      }
      output_arg {
        name: "optionalfromvalue"
        type: DT_VARIANT
      }
      output_arg {
        name: "optionalfromvalue_1"
        type: DT_VARIANT
      }
      output_arg {
        name: "optionalfromvalue_2"
        type: DT_VARIANT
      }
      output_arg {
        name: "optionalfromvalue_3"
        type: DT_VARIANT
      }
      output_arg {
        name: "optionalfromvalue_4"
        type: DT_VARIANT
      }
      output_arg {
        name: "optionalfromvalue_5"
        type: DT_VARIANT
      }
      output_arg {
        name: "optionalfromvalue_6"
        type: DT_VARIANT
      }
      is_stateful: true
    }
    node_def {
      name: "ReadVariableOp"
      op: "ReadVariableOp"
      input: "readvariableop_batch_normalization_8_gamma"
      attr {
        key: "dtype"
        value {
          type: DT_FLOAT
        }
      }
      experimental_debug_info {
        original_node_names: "ReadVariableOp"
      }
    }
    node_def {
      name: "ReadVariableOp_1"
      op: "ReadVariableOp"
      input: "readvariableop_1_batch_normalization_8_beta"
      attr {
        key: "dtype"
        value {
          type: DT_FLOAT
        }
      }
      experimental_debug_info {
        original_node_names: "ReadVariableOp_1"
      }
    }
    node_def {
      name: "FusedBatchNormV3/ReadVariableOp"
      op: "ReadVariableOp"
      input: "fusedbatchnormv3_readvariableop_batch_normalization_8_moving_mean"
      attr {
        key: "dtype"
        value {
          type: DT_FLOAT
        }
      }
      experimental_debug_info {
        original_node_names: "FusedBatchNormV3/ReadVariableOp"
      }
    }
    node_def {
      name: "FusedBatchNormV3/ReadVariableOp_1"
      op: "ReadVariableOp"
      input: "fusedbatchnormv3_readvariableop_1_batch_normalization_8_moving_variance"
      attr {
        key: "dtype"
        value {
          type: DT_FLOAT
        }
      }
      experimental_debug_info {
        original_node_names: "FusedBatchNormV3/ReadVariableOp_1"
      }
    }
    node_def {
      name: "FusedBatchNormV3"
      op: "FusedBatchNormV3"
      input: "fusedbatchnormv3_conv2d_8_conv2d"
      input: "ReadVariableOp:value:0"
      input: "ReadVariableOp_1:value:0"
      input: "FusedBatchNormV3/ReadVariableOp:value:0"
      input: "FusedBatchNormV3/ReadVariableOp_1:value:0"
      attr {
        key: "T"
        value {
          type: DT_FLOAT
        }
      }
      attr {
        key: "U"
        value {
          type: DT_FLOAT
        }
      }
      attr {
        key: "data_format"
        value {
          s: "NHWC"
        }
      }
      attr {
        key: "epsilon"
        value {
          f: 0.0010000000474974513
        }
      }
      attr {
        key: "exponential_avg_factor"
        value {
          f: 1.0
        }
      }
      attr {
        key: "is_training"
        value {
          b: false
        }
      }
      experimental_debug_info {
        original_node_names: "FusedBatchNormV3"
      }
    }
    node_def {
      name: "OptionalFromValue"
      op: "OptionalFromValue"
      input: "ReadVariableOp:value:0"
      attr {
        key: "Toutput_types"
        value {
          list {
            type: DT_FLOAT
          }
        }
      }
      experimental_debug_info {
        original_node_names: "OptionalFromValue"
      }
    }
    node_def {
      name: "OptionalFromValue_1"
      op: "OptionalFromValue"
      input: "ReadVariableOp_1:value:0"
      attr {
        key: "Toutput_types"
        value {
          list {
            type: DT_FLOAT
          }
        }
      }
      experimental_debug_info {
        original_node_names: "OptionalFromValue_1"
      }
    }
    node_def {
      name: "OptionalFromValue_2"
      op: "OptionalFromValue"
      input: "FusedBatchNormV3/ReadVariableOp:value:0"
      attr {
        key: "Toutput_types"
        value {
          list {
            type: DT_FLOAT
          }
        }
      }
      experimental_debug_info {
        original_node_names: "OptionalFromValue_2"
      }
    }
    node_def {
      name: "OptionalFromValue_3"
      op: "OptionalFromValue"
      input: "FusedBatchNormV3/ReadVariableOp_1:value:0"
      attr {
        key: "Toutput_types"
        value {
          list {
            type: DT_FLOAT
          }
        }
      }
      experimental_debug_info {
        original_node_names: "OptionalFromValue_3"
      }
    }
    node_def {
      name: "OptionalFromValue_4"
      op: "OptionalFromValue"
      input: "FusedBatchNormV3:reserve_space_1:0"
      attr {
        key: "Toutput_types"
        value {
          list {
            type: DT_FLOAT
          }
        }
      }
      experimental_debug_info {
        original_node_names: "OptionalFromValue_4"
      }
    }
    node_def {
      name: "OptionalFromValue_5"
      op: "OptionalFromValue"
      input: "FusedBatchNormV3:reserve_space_2:0"
      attr {
        key: "Toutput_types"
        value {
          list {
            type: DT_FLOAT
          }
        }
      }
      experimental_debug_info {
        original_node_names: "OptionalFromValue_5"
      }
    }
    node_def {
      name: "OptionalFromValue_6"
      op: "OptionalFromValue"
      input: "FusedBatchNormV3:reserve_space_3:0"
      attr {
        key: "Toutput_types"
        value {
          list {
            type: DT_FLOAT
          }
        }
      }
      experimental_debug_info {
        original_node_names: "OptionalFromValue_6"
      }
    }
    ret {
      key: "fusedbatchnormv3"
      value: "FusedBatchNormV3:y:0"
    }
    ret {
      key: "fusedbatchnormv3_0"
      value: "FusedBatchNormV3:batch_mean:0"
    }
    ret {
      key: "fusedbatchnormv3_1"
      value: "FusedBatchNormV3:batch_variance:0"
    }
    ret {
      key: "optionalfromvalue"
      value: "OptionalFromValue:optional:0"
    }
    ret {
      key: "optionalfromvalue_1"
      value: "OptionalFromValue_1:optional:0"
    }
    ret {
      key: "optionalfromvalue_2"
      value: "OptionalFromValue_2:optional:0"
    }
    ret {
      key: "optionalfromvalue_3"
      value: "OptionalFromValue_3:optional:0"
    }
    ret {
      key: "optionalfromvalue_4"
      value: "OptionalFromValue_4:optional:0"
    }
    ret {
      key: "optionalfromvalue_5"
      value: "OptionalFromValue_5:optional:0"
    }
    ret {
      key: "optionalfromvalue_6"
      value: "OptionalFromValue_6:optional:0"
    }
    arg_attr {
      key: 4
      value {
        attr {
          key: "_output_shapes"
          value {
            list {
              shape {
                dim {
                  size: 256
                }
                dim {
                  size: 98
                }
                dim {
                  size: 1
                }
                dim {
                  size: 128
                }
              }
            }
          }
        }
      }
    }
  }
  function {
    signature {
      name: "batch_normalization_8_cond_1_true_2360"
      output_arg {
        name: "const"
        type: DT_FLOAT
      }
    }
    node_def {
      name: "Const"
      op: "Const"
      attr {
        key: "dtype"
        value {
          type: DT_FLOAT
        }
      }
      attr {
        key: "value"
        value {
          tensor {
            dtype: DT_FLOAT
            tensor_shape {
            }
            float_val: 0.9900000095367432
          }
        }
      }
      experimental_debug_info {
        original_node_names: "Const"
      }
    }
    ret {
      key: "const"
      value: "Const:output:0"
    }
  }
  function {
    signature {
      name: "batch_normalization_8_cond_true_2292"
      input_arg {
        name: "readvariableop_batch_normalization_8_gamma"
        type: DT_RESOURCE
      }
      input_arg {
        name: "readvariableop_1_batch_normalization_8_beta"
        type: DT_RESOURCE
      }
      input_arg {
        name: "fusedbatchnormv3_readvariableop_batch_normalization_8_moving_mean"
        type: DT_RESOURCE
      }
      input_arg {
        name: "fusedbatchnormv3_readvariableop_1_batch_normalization_8_moving_variance"
        type: DT_RESOURCE
      }
      input_arg {
        name: "fusedbatchnormv3_conv2d_8_conv2d"
        type: DT_FLOAT
      }
      output_arg {
        name: "fusedbatchnormv3"
        type: DT_FLOAT
      }
      output_arg {
        name: "fusedbatchnormv3_0"
        type: DT_FLOAT
      }
      output_arg {
        name: "fusedbatchnormv3_1"
        type: DT_FLOAT
      }
      output_arg {
        name: "optionalfromvalue"
        type: DT_VARIANT
      }
      output_arg {
        name: "optionalfromvalue_1"
        type: DT_VARIANT
      }
      output_arg {
        name: "optionalfromvalue_2"
        type: DT_VARIANT
      }
      output_arg {
        name: "optionalfromvalue_3"
        type: DT_VARIANT
      }
      output_arg {
        name: "optionalfromvalue_4"
        type: DT_VARIANT
      }
      output_arg {
        name: "optionalfromvalue_5"
        type: DT_VARIANT
      }
      output_arg {
        name: "optionalfromvalue_6"
        type: DT_VARIANT
      }
      is_stateful: true
    }
    node_def {
      name: "ReadVariableOp"
      op: "ReadVariableOp"
      input: "readvariableop_batch_normalization_8_gamma"
      attr {
        key: "dtype"
        value {
          type: DT_FLOAT
        }
      }
      experimental_debug_info {
        original_node_names: "ReadVariableOp"
      }
    }
    node_def {
      name: "ReadVariableOp_1"
      op: "ReadVariableOp"
      input: "readvariableop_1_batch_normalization_8_beta"
      attr {
        key: "dtype"
        value {
          type: DT_FLOAT
        }
      }
      experimental_debug_info {
        original_node_names: "ReadVariableOp_1"
      }
    }
    node_def {
      name: "FusedBatchNormV3/ReadVariableOp"
      op: "ReadVariableOp"
      input: "fusedbatchnormv3_readvariableop_batch_normalization_8_moving_mean"
      attr {
        key: "dtype"
        value {
          type: DT_FLOAT
        }
      }
      experimental_debug_info {
        original_node_names: "FusedBatchNormV3/ReadVariableOp"
      }
    }
    node_def {
      name: "FusedBatchNormV3/ReadVariableOp_1"
      op: "ReadVariableOp"
      input: "fusedbatchnormv3_readvariableop_1_batch_normalization_8_moving_variance"
      attr {
        key: "dtype"
        value {
          type: DT_FLOAT
        }
      }
      experimental_debug_info {
        original_node_names: "FusedBatchNormV3/ReadVariableOp_1"
      }
    }
    node_def {
      name: "FusedBatchNormV3"
      op: "FusedBatchNormV3"
      input: "fusedbatchnormv3_conv2d_8_conv2d"
      input: "ReadVariableOp:value:0"
      input: "ReadVariableOp_1:value:0"
      input: "FusedBatchNormV3/ReadVariableOp:value:0"
      input: "FusedBatchNormV3/ReadVariableOp_1:value:0"
      attr {
        key: "T"
        value {
          type: DT_FLOAT
        }
      }
      attr {
        key: "U"
        value {
          type: DT_FLOAT
        }
      }
      attr {
        key: "data_format"
        value {
          s: "NHWC"
        }
      }
      attr {
        key: "epsilon"
        value {
          f: 0.0010000000474974513
        }
      }
      attr {
        key: "exponential_avg_factor"
        value {
          f: 1.0
        }
      }
      attr {
        key: "is_training"
        value {
          b: true
        }
      }
      experimental_debug_info {
        original_node_names: "FusedBatchNormV3"
      }
    }
    node_def {
      name: "OptionalFromValue"
      op: "OptionalFromValue"
      input: "ReadVariableOp:value:0"
      attr {
        key: "Toutput_types"
        value {
          list {
            type: DT_FLOAT
          }
        }
      }
      experimental_debug_info {
        original_node_names: "OptionalFromValue"
      }
    }
    node_def {
      name: "OptionalFromValue_1"
      op: "OptionalFromValue"
      input: "ReadVariableOp_1:value:0"
      attr {
        key: "Toutput_types"
        value {
          list {
            type: DT_FLOAT
          }
        }
      }
      experimental_debug_info {
        original_node_names: "OptionalFromValue_1"
      }
    }
    node_def {
      name: "OptionalFromValue_2"
      op: "OptionalFromValue"
      input: "FusedBatchNormV3/ReadVariableOp:value:0"
      attr {
        key: "Toutput_types"
        value {
          list {
            type: DT_FLOAT
          }
        }
      }
      experimental_debug_info {
        original_node_names: "OptionalFromValue_2"
      }
    }
    node_def {
      name: "OptionalFromValue_3"
      op: "OptionalFromValue"
      input: "FusedBatchNormV3/ReadVariableOp_1:value:0"
      attr {
        key: "Toutput_types"
        value {
          list {
            type: DT_FLOAT
          }
        }
      }
      experimental_debug_info {
        original_node_names: "OptionalFromValue_3"
      }
    }
    node_def {
      name: "OptionalFromValue_4"
      op: "OptionalFromValue"
      input: "FusedBatchNormV3:reserve_space_1:0"
      attr {
        key: "Toutput_types"
        value {
          list {
            type: DT_FLOAT
          }
        }
      }
      experimental_debug_info {
        original_node_names: "OptionalFromValue_4"
      }
    }
    node_def {
      name: "OptionalFromValue_5"
      op: "OptionalFromValue"
      input: "FusedBatchNormV3:reserve_space_2:0"
      attr {
        key: "Toutput_types"
        value {
          list {
            type: DT_FLOAT
          }
        }
      }
      experimental_debug_info {
        original_node_names: "OptionalFromValue_5"
      }
    }
    node_def {
      name: "OptionalFromValue_6"
      op: "OptionalFromValue"
      input: "FusedBatchNormV3:reserve_space_3:0"
      attr {
        key: "Toutput_types"
        value {
          list {
            type: DT_FLOAT
          }
        }
      }
      experimental_debug_info {
        original_node_names: "OptionalFromValue_6"
      }
    }
    ret {
      key: "fusedbatchnormv3"
      value: "FusedBatchNormV3:y:0"
    }
    ret {
      key: "fusedbatchnormv3_0"
      value: "FusedBatchNormV3:batch_mean:0"
    }
    ret {
      key: "fusedbatchnormv3_1"
      value: "FusedBatchNormV3:batch_variance:0"
    }
    ret {
      key: "optionalfromvalue"
      value: "OptionalFromValue:optional:0"
    }
    ret {
      key: "optionalfromvalue_1"
      value: "OptionalFromValue_1:optional:0"
    }
    ret {
      key: "optionalfromvalue_2"
      value: "OptionalFromValue_2:optional:0"
    }
    ret {
      key: "optionalfromvalue_3"
      value: "OptionalFromValue_3:optional:0"
    }
    ret {
      key: "optionalfromvalue_4"
      value: "OptionalFromValue_4:optional:0"
    }
    ret {
      key: "optionalfromvalue_5"
      value: "OptionalFromValue_5:optional:0"
    }
    ret {
      key: "optionalfromvalue_6"
      value: "OptionalFromValue_6:optional:0"
    }
    arg_attr {
      key: 4
      value {
        attr {
          key: "_output_shapes"
          value {
            list {
              shape {
                dim {
                  size: 256
                }
                dim {
                  size: 98
                }
                dim {
                  size: 1
                }
                dim {
                  size: 128
                }
              }
            }
          }
        }
      }
    }
  }
  function {
    signature {
      name: "batch_normalization_8_cond_1_false_2361"
      output_arg {
        name: "const"
        type: DT_FLOAT
      }
    }
    node_def {
      name: "Const"
      op: "Const"
      attr {
        key: "dtype"
        value {
          type: DT_FLOAT
        }
      }
      attr {
        key: "value"
        value {
          tensor {
            dtype: DT_FLOAT
            tensor_shape {
            }
            float_val: 1.0
          }
        }
      }
      experimental_debug_info {
        original_node_names: "Const"
      }
    }
    ret {
      key: "const"
      value: "Const:output:0"
    }
  }
  function {
    signature {
      name: "dropout_1_cond_false_1426"
      input_arg {
        name: "identity_activation_1_relu"
        type: DT_FLOAT
      }
      output_arg {
        name: "identity"
        type: DT_FLOAT
      }
      output_arg {
        name: "optionalnone"
        type: DT_VARIANT
      }
      output_arg {
        name: "optionalnone_1"
        type: DT_VARIANT
      }
      output_arg {
        name: "optionalnone_2"
        type: DT_VARIANT
      }
      output_arg {
        name: "optionalnone_3"
        type: DT_VARIANT
      }
      output_arg {
        name: "optionalnone_4"
        type: DT_VARIANT
      }
      output_arg {
        name: "optionalnone_5"
        type: DT_VARIANT
      }
      output_arg {
        name: "optionalnone_6"
        type: DT_VARIANT
      }
    }
    node_def {
      name: "Identity"
      op: "Identity"
      input: "identity_activation_1_relu"
      attr {
        key: "T"
        value {
          type: DT_FLOAT
        }
      }
      experimental_debug_info {
        original_node_names: "Identity"
      }
    }
    node_def {
      name: "OptionalNone"
      op: "OptionalNone"
      experimental_debug_info {
        original_node_names: "OptionalNone"
      }
    }
    node_def {
      name: "OptionalNone_1"
      op: "OptionalNone"
      experimental_debug_info {
        original_node_names: "OptionalNone_1"
      }
    }
    node_def {
      name: "OptionalNone_2"
      op: "OptionalNone"
      experimental_debug_info {
        original_node_names: "OptionalNone_2"
      }
    }
    node_def {
      name: "OptionalNone_3"
      op: "OptionalNone"
      experimental_debug_info {
        original_node_names: "OptionalNone_3"
      }
    }
    node_def {
      name: "OptionalNone_4"
      op: "OptionalNone"
      experimental_debug_info {
        original_node_names: "OptionalNone_4"
      }
    }
    node_def {
      name: "OptionalNone_5"
      op: "OptionalNone"
      experimental_debug_info {
        original_node_names: "OptionalNone_5"
      }
    }
    node_def {
      name: "OptionalNone_6"
      op: "OptionalNone"
      experimental_debug_info {
        original_node_names: "OptionalNone_6"
      }
    }
    ret {
      key: "identity"
      value: "Identity:output:0"
    }
    ret {
      key: "optionalnone"
      value: "OptionalNone:optional:0"
    }
    ret {
      key: "optionalnone_1"
      value: "OptionalNone_1:optional:0"
    }
    ret {
      key: "optionalnone_2"
      value: "OptionalNone_2:optional:0"
    }
    ret {
      key: "optionalnone_3"
      value: "OptionalNone_3:optional:0"
    }
    ret {
      key: "optionalnone_4"
      value: "OptionalNone_4:optional:0"
    }
    ret {
      key: "optionalnone_5"
      value: "OptionalNone_5:optional:0"
    }
    ret {
      key: "optionalnone_6"
      value: "OptionalNone_6:optional:0"
    }
    arg_attr {
      value {
        attr {
          key: "_output_shapes"
          value {
            list {
              shape {
                dim {
                  size: 256
                }
                dim {
                  size: 98
                }
                dim {
                  size: 1
                }
                dim {
                  size: 64
                }
              }
            }
          }
        }
      }
    }
  }
  function {
    signature {
      name: "batch_normalization_cond_1_false_1110"
      output_arg {
        name: "const"
        type: DT_FLOAT
      }
    }
    node_def {
      name: "Const"
      op: "Const"
      attr {
        key: "dtype"
        value {
          type: DT_FLOAT
        }
      }
      attr {
        key: "value"
        value {
          tensor {
            dtype: DT_FLOAT
            tensor_shape {
            }
            float_val: 1.0
          }
        }
      }
      experimental_debug_info {
        original_node_names: "Const"
      }
    }
    ret {
      key: "const"
      value: "Const:output:0"
    }
  }
  function {
    signature {
      name: "batch_normalization_3_cond_false_1515"
      input_arg {
        name: "readvariableop_batch_normalization_3_gamma"
        type: DT_RESOURCE
      }
      input_arg {
        name: "readvariableop_1_batch_normalization_3_beta"
        type: DT_RESOURCE
      }
      input_arg {
        name: "fusedbatchnormv3_readvariableop_batch_normalization_3_moving_mean"
        type: DT_RESOURCE
      }
      input_arg {
        name: "fusedbatchnormv3_readvariableop_1_batch_normalization_3_moving_variance"
        type: DT_RESOURCE
      }
      input_arg {
        name: "fusedbatchnormv3_conv2d_3_conv2d"
        type: DT_FLOAT
      }
      output_arg {
        name: "fusedbatchnormv3"
        type: DT_FLOAT
      }
      output_arg {
        name: "fusedbatchnormv3_0"
        type: DT_FLOAT
      }
      output_arg {
        name: "fusedbatchnormv3_1"
        type: DT_FLOAT
      }
      output_arg {
        name: "optionalfromvalue"
        type: DT_VARIANT
      }
      output_arg {
        name: "optionalfromvalue_1"
        type: DT_VARIANT
      }
      output_arg {
        name: "optionalfromvalue_2"
        type: DT_VARIANT
      }
      output_arg {
        name: "optionalfromvalue_3"
        type: DT_VARIANT
      }
      output_arg {
        name: "optionalfromvalue_4"
        type: DT_VARIANT
      }
      output_arg {
        name: "optionalfromvalue_5"
        type: DT_VARIANT
      }
      output_arg {
        name: "optionalfromvalue_6"
        type: DT_VARIANT
      }
      is_stateful: true
    }
    node_def {
      name: "ReadVariableOp"
      op: "ReadVariableOp"
      input: "readvariableop_batch_normalization_3_gamma"
      attr {
        key: "dtype"
        value {
          type: DT_FLOAT
        }
      }
      experimental_debug_info {
        original_node_names: "ReadVariableOp"
      }
    }
    node_def {
      name: "ReadVariableOp_1"
      op: "ReadVariableOp"
      input: "readvariableop_1_batch_normalization_3_beta"
      attr {
        key: "dtype"
        value {
          type: DT_FLOAT
        }
      }
      experimental_debug_info {
        original_node_names: "ReadVariableOp_1"
      }
    }
    node_def {
      name: "FusedBatchNormV3/ReadVariableOp"
      op: "ReadVariableOp"
      input: "fusedbatchnormv3_readvariableop_batch_normalization_3_moving_mean"
      attr {
        key: "dtype"
        value {
          type: DT_FLOAT
        }
      }
      experimental_debug_info {
        original_node_names: "FusedBatchNormV3/ReadVariableOp"
      }
    }
    node_def {
      name: "FusedBatchNormV3/ReadVariableOp_1"
      op: "ReadVariableOp"
      input: "fusedbatchnormv3_readvariableop_1_batch_normalization_3_moving_variance"
      attr {
        key: "dtype"
        value {
          type: DT_FLOAT
        }
      }
      experimental_debug_info {
        original_node_names: "FusedBatchNormV3/ReadVariableOp_1"
      }
    }
    node_def {
      name: "FusedBatchNormV3"
      op: "FusedBatchNormV3"
      input: "fusedbatchnormv3_conv2d_3_conv2d"
      input: "ReadVariableOp:value:0"
      input: "ReadVariableOp_1:value:0"
      input: "FusedBatchNormV3/ReadVariableOp:value:0"
      input: "FusedBatchNormV3/ReadVariableOp_1:value:0"
      attr {
        key: "T"
        value {
          type: DT_FLOAT
        }
      }
      attr {
        key: "U"
        value {
          type: DT_FLOAT
        }
      }
      attr {
        key: "data_format"
        value {
          s: "NHWC"
        }
      }
      attr {
        key: "epsilon"
        value {
          f: 0.0010000000474974513
        }
      }
      attr {
        key: "exponential_avg_factor"
        value {
          f: 1.0
        }
      }
      attr {
        key: "is_training"
        value {
          b: false
        }
      }
      experimental_debug_info {
        original_node_names: "FusedBatchNormV3"
      }
    }
    node_def {
      name: "OptionalFromValue"
      op: "OptionalFromValue"
      input: "ReadVariableOp:value:0"
      attr {
        key: "Toutput_types"
        value {
          list {
            type: DT_FLOAT
          }
        }
      }
      experimental_debug_info {
        original_node_names: "OptionalFromValue"
      }
    }
    node_def {
      name: "OptionalFromValue_1"
      op: "OptionalFromValue"
      input: "ReadVariableOp_1:value:0"
      attr {
        key: "Toutput_types"
        value {
          list {
            type: DT_FLOAT
          }
        }
      }
      experimental_debug_info {
        original_node_names: "OptionalFromValue_1"
      }
    }
    node_def {
      name: "OptionalFromValue_2"
      op: "OptionalFromValue"
      input: "FusedBatchNormV3/ReadVariableOp:value:0"
      attr {
        key: "Toutput_types"
        value {
          list {
            type: DT_FLOAT
          }
        }
      }
      experimental_debug_info {
        original_node_names: "OptionalFromValue_2"
      }
    }
    node_def {
      name: "OptionalFromValue_3"
      op: "OptionalFromValue"
      input: "FusedBatchNormV3/ReadVariableOp_1:value:0"
      attr {
        key: "Toutput_types"
        value {
          list {
            type: DT_FLOAT
          }
        }
      }
      experimental_debug_info {
        original_node_names: "OptionalFromValue_3"
      }
    }
    node_def {
      name: "OptionalFromValue_4"
      op: "OptionalFromValue"
      input: "FusedBatchNormV3:reserve_space_1:0"
      attr {
        key: "Toutput_types"
        value {
          list {
            type: DT_FLOAT
          }
        }
      }
      experimental_debug_info {
        original_node_names: "OptionalFromValue_4"
      }
    }
    node_def {
      name: "OptionalFromValue_5"
      op: "OptionalFromValue"
      input: "FusedBatchNormV3:reserve_space_2:0"
      attr {
        key: "Toutput_types"
        value {
          list {
            type: DT_FLOAT
          }
        }
      }
      experimental_debug_info {
        original_node_names: "OptionalFromValue_5"
      }
    }
    node_def {
      name: "OptionalFromValue_6"
      op: "OptionalFromValue"
      input: "FusedBatchNormV3:reserve_space_3:0"
      attr {
        key: "Toutput_types"
        value {
          list {
            type: DT_FLOAT
          }
        }
      }
      experimental_debug_info {
        original_node_names: "OptionalFromValue_6"
      }
    }
    ret {
      key: "fusedbatchnormv3"
      value: "FusedBatchNormV3:y:0"
    }
    ret {
      key: "fusedbatchnormv3_0"
      value: "FusedBatchNormV3:batch_mean:0"
    }
    ret {
      key: "fusedbatchnormv3_1"
      value: "FusedBatchNormV3:batch_variance:0"
    }
    ret {
      key: "optionalfromvalue"
      value: "OptionalFromValue:optional:0"
    }
    ret {
      key: "optionalfromvalue_1"
      value: "OptionalFromValue_1:optional:0"
    }
    ret {
      key: "optionalfromvalue_2"
      value: "OptionalFromValue_2:optional:0"
    }
    ret {
      key: "optionalfromvalue_3"
      value: "OptionalFromValue_3:optional:0"
    }
    ret {
      key: "optionalfromvalue_4"
      value: "OptionalFromValue_4:optional:0"
    }
    ret {
      key: "optionalfromvalue_5"
      value: "OptionalFromValue_5:optional:0"
    }
    ret {
      key: "optionalfromvalue_6"
      value: "OptionalFromValue_6:optional:0"
    }
    arg_attr {
      key: 4
      value {
        attr {
          key: "_output_shapes"
          value {
            list {
              shape {
                dim {
                  size: 256
                }
                dim {
                  size: 98
                }
                dim {
                  size: 1
                }
                dim {
                  size: 64
                }
              }
            }
          }
        }
      }
    }
  }
}
versions {
  producer: 561
  min_consumer: 12
}
